saved_models/REINFORCE_MLP_gamma_0.8_lr_0.001_steps_200_tmax_100.ckpt (torch, 9253 bytes, 6 tensors)

linear1.weight f4 [32, 16]
00000000: d9c0 35be c2ff 2fbd 82db 7b3e f472 e93a
00000010: 6e83 233e 1cf8 86bd fd8b 41be b69a acbd
00000020: d921 453c ff14 963d 04a7 943d b3bf 2fba
00000030: c44f 563e 50dd 83bd 9603 18bd c124 dc3d
00000040: e69a a73d 7a22 5fbe 1a02 0b3c c56f 0fbe
00000050: a10c 413e 6bf4 fc3c ba97 61be 9cc1 88bd
00000060: 9d71 40be 5ca1 18be 0700 ed3d 9f75 033e
00000070: 401f 0e3d be4b 3bbe d976 8c3d efc0 aa3d
00000080: 96a9 e5bd cead 1abe 1bd7 553d c5bb eebd
00000090: aa00 6ebe 1baa 3e3e 888f f83d 4b73 523e
000000a0: c698 76be 42a3 a03d 4f70 9bbd c09f 113e
000000b0: 2b27 eb3d 85b8 09bd 1006 733e c4db 54be
000000c0: 003e febc 86b2 86bd 76ca 223e dc94 d53d
000000d0: 547c 02be 6ed0 3d3e 37be 6cbe ad68 343e
000000e0: fbaa 2cbe 99bc 21be d643 f4bc a68e 07bd
000000f0: 7d14 27bc 781e 78be 78a3 343e 60cf 7b3d
00000100: c89b 1cbe 5ee3 413e 2c61 b93c 6d05 fdbd
00000110: 3d3e c1bd faea 66be 82b2 63be 935c 97bd
00000120: 4172 f73d 9396 163e 64cd 6abe 828e 28be
00000130: 1f3a 643e 8724 423e b87b 2dbe be4a 47bd
00000140: 2aa1 cabc 0375 2fbe 0444 cdbd e987 333e
00000150: da6c c93d fb28 2abe 760d b33c 2de2 ecbd
00000160: 8d1f 24be 7375 89bd 2e5d 35be 4330 20be
00000170: c6d5 493e 3518 bc3d 8679 823d 582e 12be
00000180: be48 27be fd9a 5dbd 396c 85be edfa ad3d
00000190: 0c9a 85bd 2a33 5bbe 28db 9a3d 6f4e 1b3d
000001a0: d974 ea3d ef40 80bd 6a74 35bc 6205 943d
000001b0: 94d4 2f3d 66e8 663e df25 a23d 1d09 b3bd
000001c0: 8fa7 abbd cd03 773e d830 79be e73a a43b
000001d0: fcd2 eb3d 3ed4 0f3e bc63 e0bd 9991 b7bd
000001e0: ae2c a9bc 9ddb 003e f6ad 5dbe 35a0 333d
000001f0: ab3e 88bd 9a98 56be 2429 063d a418 d83d
00000200: c916 61be 3f4c 973c 9189 3ebe d3db e4bc
00000210: 7448 50bc 0955 303e 7f7a 93bd 0d98 683e
00000220: 7889 dabd acb3 d03d 8fe8 83bd e617 3f3e
00000230: 761a 74be ee95 883d a843 4ebe 9a6b 79be
00000240: b965 3d3d e9e7 ea3d 225d f6bc fdb6 483c
00000250: 0eaf 82bd 1eb6 3b3d 50dc 503d bfed a73d
00000260: 98fa debd 46d8 463d e2d6 663e a86e 15be
00000270: 2f37 ba3d d75d c8bd c6a5 6a3e 97fd da3d
00000280: b1a9 f03d a8e3 96bd bc2d bcbd 5e87 c03d
00000290: 90f9 21bd 7698 00be 125b 3fbe dec8 de3d
000002a0: 7ce1 b4bd 8d55 2abe a435 07be e23c c6bd
000002b0: 1f85 36bc 6719 5cbe 352b 4fbd 0b6e 623d
000002c0: c26c 5ebe cae9 0abe e446 283e 34b5 2ebd
000002d0: b5a2 a7bc 25b2 5c3e 8139 59bd 7225 68be
000002e0: 9e46 27bd 1292 8b3c 3d13 223e 8241 88bd
000002f0: c50e a83d 7e98 713c 3d82 033d 4c3f abbc
00000300: 0e69 b63d 2aa7 62be 405f 5cbe a811 debd
00000310: cbc6 01be c58e 38be a0f1 0f3e 65ad 6d3e
00000320: 1e63 b5b9 f692 60be 2322 33be 7a9a 5a3e
00000330: fbbc 25be ee84 383d 5aa9 92bd 32d7 fdbd
00000340: 98df 46be a23f b0bd 1ec6 b4bd f55e 123e
00000350: 2754 f2bc 4eeb 5ebe 9029 7b3e d81d 073e
00000360: f5fb f03d 2177 5e3e d675 47be b426 c83c
00000370: 4fea 04be 2a46 193b 697f 03bc a017 743e
00000380: fe2c 64be e113 183b c9f6 e73d 576b 303e
00000390: bb7b 93bd 690d 02be b47b 3c3c 58ca 013e
000003a0: 9813 05be 47a5 fdbd 6e78 483e 927c 483e
000003b0: 6381 823e 9e15 6c3e 1e94 603d 683f dfbc
000003c0: e097 8a3d 7a5b 263e 25f4 33bd ae9a c23d
000003d0: 446c 5abe 2097 d0bd 18a4 803e 3d9d b9bd
000003e0: 7ebe 02be 420f f53d 62ec 7a3e c4b4 74be
000003f0: b003 a33d f0f5 9ebd 95ff d2bd 36af 62be
-0.17749347 -0.04296852 0.24595454 0.0017810748 0.15968105 -0.06590292 -0.18901058 -0.08427946
0.012031996 0.073282234 0.07258418 -0.00067042856 0.20928866 -0.064386964 -0.037112795 0.10749198
0.081838414 -0.21790496 0.008484388 -0.1400748 0.18852474 0.030878266 -0.22030535 -0.06677553
-0.1879334 -0.14905304 0.11572271 0.12837838 0.03469777 -0.18290612 0.06858606 0.083375804
-0.112139866 -0.15105364 0.052207094 -0.11656908 -0.23242441 0.18619578 0.121367514 0.20551793
-0.24081716 0.07843639 -0.075897805 0.14221096 0.1148208 -0.033623237 0.23732781 -0.20786959
-0.031035423 -0.065770194 0.15897545 0.10428783 -0.1274274 0.18536541 -0.23119436 0.17618056
-0.16862099 -0.157946 -0.029817503 -0.033095025 -0.010197756 -0.24230373 0.17640483 0.061477065
-0.15293801 0.1893439 0.022629343 -0.123545505 -0.09435699 -0.22550574 -0.22236064 -0.07390704
0.12082339 0.14705877 -0.22929913 -0.16460612 0.22287796 0.18959247 -0.16941726 -0.048655264
-0.024735052 -0.1713448 -0.100227386 0.17532314 0.09835215 -0.16617195 0.021857005 -0.11566577
-0.1602766 -0.06711855 -0.17711326 -0.1564341 0.19710454 0.091843046 0.06370835 -0.14275491
-0.16336343 -0.054102886 -0.2605913 0.08495126 -0.06523523 -0.21406236 0.07561332 0.037916597
0.11448068 -0.06262385 -0.011075119 0.07227589 0.04292734 0.2254959 0.079173796 -0.087419726
-0.08381569 0.24122544 -0.24335039 0.0050119045 0.115148515 0.14045808 -0.10956523 -0.089633174
-0.020651188 0.12583776 -0.21648392 0.043853957 -0.06652578 -0.2095665 0.03275408 0.10551575
-0.21981348 0.018468974 -0.18607165 -0.027936852 -0.012712587 0.17219938 -0.07201099 0.22714253
-0.10670751 0.1019052 -0.064408414 0.1866146 -0.23838219 0.06669222 -0.20142996 -0.24357453
0.04623959 0.114700146 -0.030073706 0.012250659 -0.06381045 0.045827977 0.050991356 0.08199643
-0.10887641 0.0485461 0.22542909 -0.14592993 0.09092557 -0.097835235 0.229148 0.106929
0.11751116 -0.07367641 -0.09188411 0.09400819 -0.039544642 -0.12558159 -0.18687084 0.10878156
-0.0883207 -0.16634198 -0.13204056 -0.09679581 -0.011140137 -0.21494065 -0.050578315 0.055280726
-0.21721175 -0.13565746 0.16433293 -0.042653278 -0.020463327 0.21552332 -0.053033356 -0.22670534
-0.04083883 0.017037425 0.15827651 -0.066531196 0.08205942 0.01474583 0.032106627 -0.020904206
0.08906756 -0.2213408 -0.2152071 -0.108432114 -0.1267349 -0.18023212 0.14057016 0.23210676
-0.00034596858 -0.21931061 -0.17493491 0.2134799 -0.16185372 0.045048647 -0.071612075 -0.12394561
-0.19421232 -0.08605887 -0.0882685 0.14294036 -0.029581143 -0.21769449 0.24527574 0.13194978
0.11766807 0.21725132 -0.19478545 0.024432518 -0.12980007 0.0023387768 -0.008025982 0.23837137
-0.22282788 0.0023205208 0.113263674 0.17228447 -0.07201334 -0.12700428 0.0115041025 0.12674844
-0.12995756 -0.1238504 0.1957719 0.1957877 0.2548934 0.23055121 0.054828756 -0.027251914
0.06767249 0.16245833 -0.043934006 0.09502159 -0.21330363 -0.10185075 0.25125194 -0.09063194
-0.1276798 0.11965801 0.24504235 -0.23897082 0.07959688 -0.077617526 -0.10302655 -0.2213715

linear1.bias f4 [32]
00000000: 7781 843d 2668 083d 6463 0fbe 630a 383e
00000010: 635d afbd ea70 813e 5602 063e f6a1 7dbd
00000020: df26 fb3c 31a6 c0bd 8947 233e 2d0a 3c3e
00000030: f7ff 003d b097 6a3e 245b 8cbb 5411 efbd
00000040: de26 103d 34bf dbbd a048 77bd 654c 743e
00000050: 7fd8 98bd 12c4 df3d 4dae 683e 7e10 35bd
00000060: 0b0a 7b3d c670 6ebe 3f73 b13d aa2e 92bd
00000070: 8965 4abe e6e5 053e ba1a 36be d26e 2e3e
0.06470006 0.03330245 -0.14002758 0.17972712 -0.08562734 0.2528146 0.13086829 -0.061922036
0.030658184 -0.094066985 0.15945257 0.18363257 0.031494107 0.22909427 -0.0042833257 -0.11673227
0.035193317 -0.107298285 -0.060371995 0.23857267 -0.07463168 0.10926069 0.2272274 -0.04420518
0.061288875 -0.23285207 0.086645596 -0.07137807 -0.19765295 0.1307598 -0.17783633 0.17034462

linear2.weight f4 [32, 32]
00000000: d000 0f3e 46f2 fcbd 951f 08be a612 cabd
00000010: ca18 183e bf5b dbbd d67c 0dbd 46bb 0f3e
00000020: 5334 183c a3a9 98bd 2693 973c 0990 8ebc
00000030: bf0e 13be 32b0 903c 0722 cabc 7cf8 aebd
00000040: 6529 123e 7785 f4bd 46a3 31bc 640f 27be
00000050: c18c ad3d 5b34 16bd b48d de3d caa7 22be
00000060: 776e 16be cccb cb3c e4a5 2b3d 20de 263e
00000070: 90ea cebd e2f3 b33d fa8c 183c 9d02 8abd
00000080: 9120 173e 1635 19be c1eb 8bbd cac6 c3bd
00000090: 72d9 09bd c734 093e 9cad aa3d 1a57 203e
000000a0: c7dc 3cbc 7b81 d23d 1a5e 993a ed1c d03d
000000b0: 8104 75bd 9690 21be f479 0fba 2f16 5f3b
000000c0: 9044 ba3d 6ba3 323e 988e 21be 9d73 993d
000000d0: f5b1 9abc b8d2 52bd afe9 1a3d 6633 d23d
000000e0: 257b c63d 2f6e d1bd 76b3 cc3c 59a3 943d
000000f0: 8fa8 023d ad2c e03d f53f 403c 2bf1 52bd
00000100: 04bb d93c 8461 cebc 1c5f 1bbd 033d 9bbd
00000110: ed2c bb3d cfe5 353c 9b88 c1bd 34f1 b03d
00000120: e267 f3bc ec0f cc3d 6086 86bd 4c5f e73d
00000130: f894 ddbd c0fa 32be f0f7 01be cb42 e03c
00000140: 4b25 083e fe1c aabd 9df8 46bd d044 c3bd
00000150: 0c4d cfbd f4f5 15be 135f f63d 19ef 66bd
00000160: ce35 20be 1afa 133e 9fb6 bd3d 0ebe 683c
00000170: a9a4 08bd 0b15 c03d 2b09 c6bd 90ba cd3d
00000180: c7b3 83bd 629f 1cbd 4cea c33d dc11 09be
00000190: fc4e 1abe d58e 243e ba0c 0a3e 2921 d8bd
000001a0: 4327 29bd 8c64 303c 9bb5 d0bc ec97 c33d
000001b0: b037 d43d e99c a4bb 471e 23be 1ba2 933c
000001c0: c0ad 633d 1d93 933d 93c5 223e eb20 213d
000001d0: 21d2 a53d 97e1 0cbe 49f5 0f3e a9a0 193c
000001e0: 6dd5 15be 4eb8 cbbb 8395 a8bd 59d5 63bc
000001f0: 9866 2d3d 72ec 12be 0ad6 143e 287e 1e3e
00000200: 78b2 d8bc 92ee 8f3d fe26 65bb d68c 0dbe
00000210: 961c 00be 4209 46bd f486 963d b7b4 b2bd
00000220: 8694 443c dead 273d 369e f3bd 54bd fcbc
00000230: 4dcd 25bd a714 073e 8cc4 843c 26e4 27be
00000240: 40b1 c23d 6ed9 24be e9da cfbd 1adf c83c
00000250: bb06 69bd e468 903d 66ef b33d ef1c 85bd
00000260: d31f 623d 7d50 1ebe 6c05 92bc 600a cabd
00000270: c8e2 f03c 93bf 363d 5d62 afbc 7840 503d
00000280: 00f2 693c fc0b 063e 5975 18be ddf8 f1bd
00000290: 5ea9 ed3d ad73 013e 8b67 853d a496 923c
000002a0: 8320 be3d 9394 6dbd 136b bdbd 700f 1fbe
000002b0: ed5f ef3d 7096 d03d ec26 0dbe 5c5b 1a3e
000002c0: 5b73 d7bd 053f 423c 396b 903d 05a8 edbd
000002d0: 2686 2ebe ea4f 1dbe 0250 5c3d b5cc b53c
000002e0: 45b2 4c3d 0d8a eebc 4387 513c bdfa c13c
000002f0: 446a df3d a5b7 a93c 2e3e 833c a07e 1abd
00000300: 1a3d aebd fb1a a03d 3fc0 c1bd 0621 103e
00000310: 435b 0b3e d0a4 3fbd 0b3e 1fbe 788d 093e
00000320: 4aad c7bd 5760 19be 11c7 eb3d 20ce 17bd
00000330: 7ac8 bfbd 25a9 c5bd 2223 1cbe 53c4 1a3e
00000340: 1980 acbc 4e5a de3d 3695 1e3d 4698 2b3e
00000350: 732f 92bb 39f5 6ebb 24da 043e 374f a5bd
00000360: 627e 98bd d25a 823d c993 133e 5283 ab3d
00000370: 1836 213e d90c 09bd 1b8e 743d 09d3 96bc
00000380: 32f4 63bd f773 a43d b252 81bd ba57 103e
00000390: 0dee 1dbe 1e83 54bd 233b b83b a554 c3bd
000003a0: 58e9 2f3e 7005 fcbc 061b 173e 6555 f23d
000003b0: bb4d e9bc cd70 20be c14c ca3d a521 543d
000003c0: 0a66 88bc 233b 86bc 06e6 1d3e 152a 223e
000003d0: 066b 13be a927 833d 560b db3d f6e4 d2bd
000003e0: 3021 68bd b233 593d f747 8c3d cc96 0ebe
000003f0: 4179 c4bc 3eb8 64bd 8f95 34bd 13ef 233e
0.13965154 -0.123508975 -0.13293298 -0.09866838 0.14853206 -0.107108586 -0.03454288 0.14036283
0.009289819 -0.07454231 0.018502783 -0.017402666 -0.14361094 0.017662141 -0.024674429 -0.085434884
0.14273603 -0.11939519 -0.01084215 -0.16314465 0.08474112 -0.036671024 0.108668715 -0.15884319
-0.14690576 0.024877451 0.041906253 0.16295671 -0.10103333 0.08786751 0.009310955 -0.0673878
0.14758517 -0.14961657 -0.06832076 -0.095594004 -0.033654638 0.13399039 0.083338946 0.15658227
-0.011527247 0.10278603 0.0011701018 0.10161767 -0.05981875 -0.15777811 -0.00054731895 0.0034040322
0.090951085 0.17445152 -0.15777051 0.074927546 -0.018883685 -0.05147049 0.037820514 0.1026371
0.09691457 -0.10226094 0.024987917 0.072577186 0.03189903 0.10946021 0.011733999 -0.051499527
0.026578434 -0.025192983 -0.0379325 -0.075799964 0.09139428 0.011102154 -0.094498836 0.08639756
-0.029712621 0.09963974 -0.06568599 0.11297473 -0.10819429 -0.17478466 -0.12692237 0.0273756
0.13295476 -0.08306311 -0.04857694 -0.09534609 -0.101221174 -0.14644605 0.12029853 -0.056380365
-0.15645525 0.14450875 0.09263348 0.014205469 -0.033360157 0.09379014 -0.096697174 0.100453496
-0.06430774 -0.038237937 0.09566173 -0.13385719 -0.15069193 0.16070111 0.13481417 -0.105532
-0.04129721 0.01076616 -0.025477221 0.09550461 0.10362184 -0.005023588 -0.15929519 0.018021634
0.055585623 0.07205794 0.15895681 0.039338034 0.080967195 -0.1375793 0.14058413 0.009376683
-0.14632197 -0.006217039 -0.08231642 -0.0139058465 0.04233417 -0.14348009 0.14534774 0.15477812
-0.026452288 0.070279256 -0.0034965868 -0.13823256 -0.12510905 -0.048348673 0.07349959 -0.08725875
0.011998301 0.040937297 -0.11895411 -0.030851997 -0.040478993 0.13191472 0.016207002 -0.16395625
0.09506464 -0.16098568 -0.10149176 0.024520446 -0.056891184 0.07051256 0.08785896 -0.06499659
0.05520613 -0.15460391 -0.017824851 -0.0986526 0.029405013 0.044616293 -0.021409208 0.050842732
0.014278889 0.13090509 -0.14888515 -0.11815045 0.1160457 0.12641783 0.0651389 0.017894097
0.09283545 -0.05800302 -0.092489384 -0.15533233 0.11688218 0.10184944 -0.13784379 0.15073913
-0.10520049 0.011855845 0.07051701 -0.11604313 -0.17043361 -0.15362516 0.05378724 0.022192338
0.0499747 -0.029118562 0.012788597 0.023679132 0.109089404 0.020717451 0.01602086 -0.037718415
-0.08507748 0.07817646 -0.09460496 0.14075097 0.13609032 -0.046788037 -0.15551011 0.13432872
-0.09749849 -0.14978157 0.11512578 -0.03706181 -0.0936441 -0.096514024 -0.15247777 0.15113954
-0.021057175 0.10857068 0.038716517 0.16757306 -0.004461223 -0.0036462082 0.12973839 -0.0807175
-0.074459806 0.06364979 0.14411844 0.08374657 0.15743291 -0.033459518 0.059705835 -0.018411176
-0.055652805 0.08029931 -0.06314601 0.14095965 -0.1542284 -0.051882856 0.005622284 -0.09537629
0.17178857 -0.030764312 0.14756402 0.11832694 -0.028479448 -0.1566803 0.09877921 0.0517899
-0.016650219 -0.01638562 0.15419778 0.15836366 -0.14396295 0.06404049 0.106955215 -0.10297577
-0.056672275 0.053027816 0.06849664 -0.13924712 -0.0239836 -0.05583977 -0.044087943 0.16009168

linear2.bias f4 [32]
00000000: f4c7 a93c fa7f bfbc 01cf b5bb 6903 01bd
00000010: 1739 123e 7bc9 0e3e 2b57 68bd fbfc 17be
00000020: 737d cbbd 6a99 b6b9 c28b 203e d406 b53d
00000030: 2a43 c6bd 2517 333e 6e74 bb3d e5c0 983d
00000040: e474 13be f0ee ebbb 28ac a93d 30df a73d
00000050: 7137 14be 7696 133d 332b b3bd 4b3d 00be
00000060: e5d6 8fbc 0140 80bd a303 c33d a433 0c3e
00000070: aed4 213b 8209 96bc 9fea 6d3d dcbc 02be
0.020725228 -0.023376454 -0.0055483584 -0.031497393 0.1427959 0.13944046 -0.056723755 -0.14842598
-0.09936037 -0.00034828048 0.15678313 0.08839193 -0.09680779 0.17489298 0.091530666 0.07458667
-0.14400059 -0.0072001144 0.08284789 0.081968665 -0.14474274 0.036032163 -0.08748474 -0.12523381
-0.017558524 -0.06262208 0.09522178 0.13691574 0.0024693417 -0.01831508 0.05808508 -0.12767357

linear3.weight f4 [4, 32]
00000000: 6b9d e2bd 5253 b63d 20b5 22be efc2 063e
00000010: 1812 5d3d f5a7 d7bd 890f d3bd 4387 c2bd
00000020: e59d 2fbe 1c06 5bbd 08a2 1a3e 1a2a 54bb
00000030: 1f24 073d 09ae a3bb 1d31 7a3d 181f f4bd
00000040: 06c5 29be 0b37 13be 22b4 be3d 9a1d 623d
00000050: 9088 273e e085 21be 0ca9 d13d 386d 1b3d
00000060: 300e d03d f10c d73d b6e0 0ebe 6cba 12be
00000070: fa98 183e dcaf 30be 28cd 0bbe 4b99 153e
00000080: 7905 223e 52de 0f3d ed15 103d 2821 01be
00000090: ddb5 403c f980 f33d 5075 233d cdb2 463d
000000a0: 3d7b a1bd 7146 10bd d2fd b9bd 78a9 dfbd
000000b0: af91 3a3e 84e6 b6bd 8e5a c1bc 7e5a ab3d
000000c0: 2caa e3bd 89f2 0d3e 91f4 c1bd 9235 103d
000000d0: d46e b93c d7af 28be 81f6 1cbe c2b8 22be
000000e0: 226f e9bd 566d 74bd cf59 dbbd 5521 67bd
000000f0: afc6 c33d 12e1 81bd f65a 00be d25f 68bd
00000100: c7fa b43d 5afb 193e 06b5 f6bd 2d09 983d
00000110: e1e5 edbc b08a 0f3d f42d eb3d 42c6 0cbc
00000120: 2f39 cbbd 9b42 763b 213d 36bc db6a 90bd
00000130: 469a 67bd e536 97bd d176 2b3e 4e2f d9bd
00000140: bfc4 10be b445 f7bb 5205 99bd 4f34 c63d
00000150: 5ff8 f6bd 8394 b63d 84fd c33c 5fb4 d63b
00000160: f7dc f6bd 9a71 1d3d ac43 c73d b574 323e
00000170: 17e2 5fbd 4771 2d3e 534d 363e 968a 0dbd
00000180: 68c9 9b3d 9341 dbbd aba9 bfbd e215 443e
00000190: 045a f93d d537 22be a4e3 843d 2083 193e
000001a0: 408d fcbc 3c17 cd3d 74ca 313d d77a 973d
000001b0: e979 413e 28a2 05be b6c4 c0bb 231f 76bc
000001c0: 2b45 e03d 7ecb 2f3d a37d 1e3e 9bf7 0cbe
000001d0: ec26 873d 93ea b63c ab8d 353e b413 e1ba
000001e0: 4b1b 25bd 7192 80bb dbe1 5bbc f054 ca3d
000001f0: 87ee 183d d9ac abbd 31af ee3d 80aa cabd
-0.11065181 0.08902611 -0.15889406 0.13160299 0.053972334 -0.10530082 -0.103056975 -0.094984554
-0.17150076 -0.053472623 0.15100873 -0.0032373727 0.032993432 -0.004995112 0.061081994 -0.11919993
-0.16579065 -0.14376466 0.09311701 0.05520401 0.16360688 -0.15773726 0.10237321 0.037945956
0.10158956 0.10500515 -0.13952908 -0.14328927 0.14902106 -0.17254585 -0.1365248 0.14609258
0.158224 0.03512413 0.03517716 -0.12610304 0.01176211 0.11889834 0.0399068 0.04851036
-0.07884834 -0.03522343 -0.090816155 -0.109209955 0.18219636 -0.08930686 -0.02360275 0.083668694
-0.11116442 0.13862051 -0.094704755 0.03520734 0.022635855 -0.16473328 -0.15328409 -0.15890792
-0.1139815 -0.059674583 -0.10710489 -0.056428272 0.0955938 -0.06341757 -0.12534699 -0.056732006
0.088368945 0.1503729 -0.12046246 0.07423625 -0.029040279 0.035044372 0.11483374 -0.00859219
-0.09923016 0.003757632 -0.011122973 -0.07051631 -0.05654361 -0.07383517 0.16744544 -0.10604726
-0.14137553 -0.007546151 -0.07471718 0.09677946 -0.12059092 0.08915045 0.023924597 0.0065522636
-0.120538644 0.038438417 0.09729704 0.17427333 -0.054658975 0.16937743 0.17802934 -0.034555994
0.076067746 -0.10705867 -0.093585335 0.19148973 0.12175372 -0.1584161 0.064887315 0.14991426
-0.030829072 0.10014197 0.043405965 0.07396477 0.18894161 -0.13050139 -0.005882825 -0.015022072
0.10950693 0.042918675 0.15477614 -0.13766329 0.06599221 0.02232865 0.17729823 -0.001717201
-0.04030923 -0.003923707 -0.013420547 0.09879482 0.037336852 -0.083825774 0.11654509 -0.098958015

linear3.bias f4 [4]
00000000: 21e3 243e 935b fc3d 739d 99bc 0366 b83d
0.16102268 0.12322154 -0.018751835 0.09003832
