saved_models/REINFORCE_ConvNet_gamma_0.8_lr_0.0001_steps_2.ckpt (torch, 18231 bytes, 8 tensors)

layer1.0.weight f4 [16, 1, 2, 2]
0	0x3bd4f1b2	0.006498539
1	0x3eb9eba8	0.36312604
2	0x3e850f85	0.25988403
3	0xbe093724	-0.1339994
4	0x3e601695	0.21883614
5	0xbe6d48df	-0.2317233
6	0xbd69bfc9	-0.057067666
7	0xbe9ea36a	-0.3098405
8	0xbed3aa39	-0.41340807
9	0xbef7179d	-0.48260203
10	0x3e9fe160	0.31226635
11	0x3ea7d941	0.3278294
12	0x3e9268a2	0.28595454
13	0x3e15692d	0.14590903
14	0x3e508e0a	0.20366684
15	0xbefe9e93	-0.49730358
16	0x3ef4c79f	0.4780855
17	0xbe1713af	-0.14753602
18	0x3eb405de	0.35160726
19	0xbd38af61	-0.04508913
20	0xbca0c127	-0.019623352
21	0x3ccd2874	0.025043704
22	0xbe87a2a0	-0.2649126
23	0xbef78e62	-0.48350817
24	0x3ebc9292	0.36830574
25	0x3ead63db	0.33865246
26	0x3dc5abc2	0.09651901
27	0x3e2f1394	0.17097312
28	0xbe3f4284	-0.18677717
29	0x3eedb882	0.4642983
30	0xbe90f923	-0.28315076
31	0x3c2bce91	0.010486261
32	0xbe011876	-0.12606987
33	0xbea264e7	-0.31717607
34	0xbc925976	-0.017864924
35	0x3df84f7c	0.121245354
36	0x3ea51a5d	0.32246676
37	0xbedfe2cb	-0.43727717
38	0xbeaf17ee	-0.34197944
39	0xbe4b36f9	-0.19845189
40	0x3e73ffd6	0.23828062
41	0x3daf2a57	0.085529976
42	0xbee8da01	-0.45478824
43	0x3e83b11c	0.2572106
44	0x3e653380	0.22382927
45	0xbe0e27ee	-0.1388242
46	0xbee1cd53	-0.44101962
47	0xbedbf5b0	-0.42960882
48	0xbdaef96f	-0.085436694
49	0x3e14f0d5	0.14544995
50	0x3efaf4bd	0.49014845
51	0x3e7c5e4d	0.24645348
52	0xbeb45182	-0.35218436
53	0xbee4d40c	-0.4469303
54	0xbdcb001e	-0.09912132
55	0xbdf1ebce	-0.11812554
56	0xbea06a3e	-0.31331056
57	0xbef667a5	-0.4812595
58	0x3dc7f994	0.097644
59	0xbec1e008	-0.37866235
60	0x3e3ce6ed	0.18447466
61	0xbd920cc7	-0.07131343
62	0xbe4a7903	-0.19772725
63	0xbe8c4983	-0.27399835

layer1.0.bias f4 [16]
0	0xbee9f0c3	-0.456915
1	0xbec3d250	-0.38246393
2	0x3e5b1938	0.21396339
3	0x3e706481	0.23475839
4	0xbcba41bd	-0.022736425
5	0x3ef192c4	0.47182286
6	0xbd7c70ba	-0.061630942
7	0xbe9754ba	-0.2955683
8	0xbef6d4a6	-0.48209113
9	0xbef02a91	-0.46907476
10	0x3ec25e22	0.37962443
11	0xbee1fffc	-0.44140613
12	0x3d0d9d0a	0.034573592
13	0x3e914bbd	0.28378096
14	0xbec78efc	-0.38976276
15	0x3de83c19	0.11339588

layer2.0.weight f4 [16, 16, 2, 2]
0	0xbd07d6b1	-0.03316373
1	0xbd877ad8	-0.066152275
2	0xbdc5531a	-0.09634991
3	0xbcebfb7b	-0.028806439
4	0xbde0943f	-0.10965776
5	0xbcba5a33	-0.022748088
6	0x3de1276f	0.109938495
7	0x3d16fad4	0.036860302
8	0xbded0c21	-0.11574579
9	0xbb9c2e10	-0.0047662333
10	0x3d878346	0.06616835
11	0x3ca94f5d	0.020667726
12	0x3b60da62	0.0034309854
13	0xbd834322	-0.06409289
14	0xbd60553f	-0.054768797
15	0x3cda7fbb	0.026672235
16	0x3bbaf48b	0.0057054213
17	0xbd80e964	-0.06294516
18	0xbc14197f	-0.009039282
19	0xbd55355b	-0.052052837
20	0x3ddfe359	0.10932035
21	0x3d74938a	0.059711017
22	0xbdb3e421	-0.087837465
23	0xbce1af20	-0.027549326
24	0xbdd3ef5d	-0.10348389
25	0xbca416b1	-0.020030351
26	0x3cc7edc8	0.024405375
27	0xbdac03cc	-0.08399162
28	0xbda33f3d	-0.07971046
29	0x3d30f778	0.043204755
30	0xbda58e61	-0.08083797
31	0x3d2938b6	0.04131385
32	0x3d21f8d9	0.03954396
33	0x3dfbe3b9	0.12299294
34	0xbdf43576	-0.11924259
35	0x3c1d1433	0.009587335
36	0x3da8f684	0.08250144
37	0xbde2cbe4	-0.11074045
38	0xbdce8b12	-0.10085119
39	0x3df619f2	0.120166674
40	0x3db68c05	0.08913425
41	0xbdc0eac5	-0.09419779
42	0x3d39026f	0.045168336
43	0x3d22c652	0.039739914
44	0x3dc64dc7	0.096828036
45	0xbd72de40	-0.059293985
46	0x3d594f8e	0.053054385
47	0x3dbbf23c	0.09177062
48	0x3d9e4c4d	0.07729397
49	0x3d14f9e5	0.03637113
50	0xbdef469d	-0.1168339
51	0x3ddcb600	0.10776901
52	0x3d450ff8	0.048110932
53	0xbc7fd6ab	-0.015615146
54	0x3de9f372	0.11423387
55	0x3d373b63	0.04473437
56	0x3d15d93d	0.036584128
57	0xbd053153	-0.032517742
58	0xbdcd1187	-0.10013109
59	0x3ccd18c0	0.025036216
60	0xbdad8733	-0.08473053
61	0x3c955cac	0.018232666
62	0xbd0104f3	-0.03149886
63	0xbdf23f56	-0.118284866
64	0x3dc5c6ba	0.09657045
65	0x3d9e17ec	0.077194065
66	0x3d8f0108	0.069826186
67	0xbd69187f	-0.056908127
68	0x3cc3ee48	0.023917332
69	0x3da70adc	0.08156368
70	0x3d842230	0.06451833
71	0x3c67a84e	0.014139248
72	0xbcfe1cd8	-0.031019613
73	0xbdf9656d	-0.121775486
74	0xbd2bdb46	-0.041957162
75	0x3c41c1f7	0.01182603
76	0x3df3ba41	0.119007595
77	0xbdfef1ca	-0.12448461
78	0x3cfb0bfb	0.030645361
79	0xbd82a0e6	-0.06378345
80	0xbba8e793	-0.005154559
81	0xbdffd8a5	-0.124924935
82	0xbc5c0260	-0.013428301
83	0xbd35914b	-0.044328015
84	0x3d8a86be	0.06763981
85	0x3df46f5d	0.11935303
86	0xbd5f6436	-0.054538928
87	0x3b7fff45	0.0039062065
88	0xbd8c9519	-0.068643756
89	0x3da837d7	0.082137756
90	0xbd0fe123	-0.035126816
91	0xbd8bbc70	-0.06823051
92	0xbd9d0946	-0.076677844
93	0x3d2587ca	0.0404127
94	0x3d3a3f7f	0.04547071
95	0xb8e2cc30	-0.00010814553
96	0xbc6d1c1f	-0.014472037
97	0x3d15af28	0.036543995
98	0xbca8ddf9	-0.020613657
99	0x3deff103	0.11715891
100	0xbdfc754c	-0.1232706
101	0x3c914296	0.017731946
102	0x3d6888b6	0.056771003
103	0xbc7d452f	-0.015458389
104	0xbdc0b328	-0.09409171
105	0x3daf3e60	0.08556819
106	0x3d50dbc3	0.05099083
107	0x3dd9fa00	0.10643387
108	0xbcee33cc	-0.029077433
109	0xbceee29e	-0.029160794
110	0x3dafae52	0.08578171
111	0x3be22842	0.0069017718
112	0x3c7ef2e0	0.015560836
113	0x3c4cb059	0.012493216
114	0xbddd0c1e	-0.10793327
115	0x3c9c261c	0.01906114
116	0xba7e18cb	-0.00096930255
117	0x3d3a3af4	0.04546638
118	0xbdda97b2	-0.10673465
119	0xbdc361de	-0.09540151
120	0x3d642782	0.05570174
121	0x3d53b34b	0.05168466
122	0xbcd31591	-0.02576712
123	0x3dd31cc7	0.10308223
124	0x3d295341	0.041339163
125	0xbd8286df	-0.06373381
126	0xbd330e27	-0.04371467
127	0xbdc2f440	-0.09519243
128	0x3ddc23ac	0.10748991
129	0xbd966ec4	-0.073453456
130	0xbdeda179	-0.11603064
131	0xbd2266c4	-0.039648786
132	0x3dd5f416	0.10446946
133	0x3df8f9c1	0.12157012
134	0xbda8493e	-0.08217095
135	0x3ccc4a58	0.024937794
136	0x3da6eee9	0.08151037
137	0xbde65f9d	-0.112487055
138	0xbb7f8793	-0.003899072
139	0xbd7362f6	-0.05942055
140	0x3cd4387d	0.025905842
141	0x3b49009f	0.0030670536
142	0xbccc050b	-0.024904748
143	0x3ca81731	0.020518871
144	0x3dfa7b56	0.12230556
145	0xbc8dc1f5	-0.0173044
146	0xbca242ff	-0.019807337
147	0xbd6eb833	-0.058281135
148	0x3ddb1829	0.106979676
149	0xbddfe0f3	-0.109315775
150	0x3d408bf5	0.047008473
151	0xbc32ac40	-0.010905325
152	0xbd529420	-0.051410794
153	0x3c63680e	0.013879789
154	0xbcbccaf8	-0.023046002
155	0x3dc89410	0.09793866
156	0x3da4ae7a	0.08041091
157	0xbdcc66cc	-0.099805444
158	0xbc623270	-0.013805971
159	0x3dc0e4a3	0.09418609
160	0x3ddf3c5f	0.10900187
161	0xbb80470d	-0.00391472
162	0x3dbe387e	0.09288119
163	0x3db883a8	0.090094864
164	0xbdb72238	-0.089420736
165	0xbd11706e	-0.035507612
166	0x3dc22e9f	0.094815485
167	0x3d4cce5a	0.05000148
168	0x3ca6d0b4	0.02036319
169	0xbd7180e6	-0.058960818
170	0x3a6f7d28	0.0009135776
171	0xbd041183	-0.032243263
172	0xbd9df95b	-0.077135764
173	0xbd89572b	-0.06706079
174	0x3d9d93f5	0.07694236
175	0xbc8e36fd	-0.017360205
176	0xba252490	-0.0006299699
177	0x3d49c24a	0.049257554
178	0xbd8b6178	-0.068057
179	0x3d8e8b03	0.06960108
180	0xbded99e4	-0.11601618
181	0xbd1cf3d2	-0.038318463
182	0xbd001a83	-0.031275284
183	0x3d5ef9d6	0.05443748
184	0xbdf1e287	-0.11810785
185	0xbdf025bc	-0.11725947
186	0x3d8e584a	0.069504336
187	0xbcdae5bc	-0.026720874
188	0xbdf34947	-0.11879211
189	0xbd92c263	-0.071659826
190	0x3bbe0a6e	0.005799583
191	0xbd6d4e38	-0.057935923
192	0xbd9ea82a	-0.077469185
193	0x3dee5412	0.11637129
194	0xbb0ce94b	-0.0021501358
195	0xbd02d81f	-0.03194439
196	0x3cec4969	0.028843598
197	0xbd4e6ea4	-0.050398484
198	0xbd41487d	-0.04718827
199	0x3d903e24	0.070431024
200	0x3dbd3733	0.09239044
201	0xbcbe59d0	-0.023236185
202	0x3dfef3ea	0.12448867
203	0xbdc2ee30	-0.09518087
204	0xbdf110f7	-0.11770814
205	0xbc1939d7	-0.009352169
206	0xbd5821c3	-0.052766573
207	0xbb2b8489	-0.0026171526
208	0x3b94ea37	0.004544522
209	0xbcb03505	-0.021509657
210	0xbda30c86	-0.07961373
211	0x3deb880d	0.11500559
212	0xbdd2a62d	-0.10285602
213	0xbd1c3816	-0.038139425
214	0x3bd655fd	0.0065410123
215	0x3dc2429c	0.09485361
216	0x3d0e86cf	0.034796532
217	0xbde94a36	-0.11391108
218	0xbc0708f0	-0.008241877
219	0xbdd5e4ad	-0.10444007
220	0x3df8a301	0.121404655
221	0x3cb09e1c	0.021559767
222	0xbdc76b7a	-0.097372964
223	0x3cec58f0	0.028851002
224	0x3ccd7331	0.025079342
225	0x3dc07a45	0.09398321
226	0xbd80db6c	-0.062918514
227	0xbd118706	-0.03552916
228	0x3d21c214	0.039491728
229	0x3d032dae	0.032025985
230	0xbdc3e994	-0.09566036
231	0x3d32705c	0.043564186
232	0xbce30a3a	-0.027714837
233	0x3d3e52d6	0.046465717
234	0xbdc5072f	-0.09620511
235	0x3ceabb37	0.028653724
236	0x3dcbd345	0.09952406
237	0xbc482f87	-0.012218363
238	0xbdfa711e	-0.12228607
239	0xbd0e5b90	-0.03475529
240	0xbd54a2d6	-0.051913105
241	0x3cdf5bc6	0.02726544
242	0xbc801c8f	-0.015638618
243	0x3db979f6	0.09056465
244	0xbda680cf	-0.08130037
245	0x3de0a231	0.109684356
246	0xbc14cd52	-0.009082155
247	0xbde6716a	-0.11252101
248	0xbb50f944	-0.0031886855
249	0x3d826e4f	0.06368696
250	0xbd6e8e02	-0.058240898
251	0x3d9af10a	0.07565506
252	0xbd4719bf	-0.048608538
253	0x3c4883b7	0.0122384345
254	0x3de87b13	0.113515995
255	0xbcc7a17a	-0.02436899

layer2.0.bias f4 [16]
0	0xbdefa206	-0.117008254
1	0x3d892d12	0.066980496
2	0x3dfed44f	0.124428384
3	0xbd694a79	-0.05695579
4	0xbc778232	-0.015106725
5	0x3bf5e464	0.007504033
6	0x3da55f87	0.08074861
7	0xbdbab424	-0.0911639
8	0x3df38517	0.11890619
9	0x3c46dcf7	0.012137643
10	0xbd2f37bb	-0.042777758
11	0x3d72f6ce	0.059317403
12	0x3d697506	0.056996368
13	0xbda48440	-0.08033037
14	0x3dd1adf4	0.10238257
15	0x3dcc7585	0.099833526

layer3.0.weight f4 [16, 16, 2, 2]
0	0x3d6ec315	0.058291513
1	0xbdb080b0	-0.08618295
2	0xbd342f0c	-0.04399018
3	0x3dff32d0	0.124608636
4	0x3d89bdc6	0.067256495
5	0xbcfdb373	-0.030969357
6	0x3d61b7d2	0.055106945
7	0x3d46a106	0.048493408
8	0x3da9f93a	0.08299489
9	0xbda81796	-0.08207624
10	0x3d57b4eb	0.05266277
11	0x3a780a99	0.00094620284
12	0xbb364026	-0.0027809232
13	0xbc81201b	-0.01576238
14	0xbd05f588	-0.03270486
15	0x3d15bb1e	0.036555402
16	0x3da5dc08	0.08098608
17	0xbdb17064	-0.08664015
18	0x3dd938d5	0.10606543
19	0xbc4816cf	-0.012212469
20	0xbdae68ef	-0.08516108
21	0xbd261139	-0.04054377
22	0x39d715ef	0.00041024337
23	0xbd70af33	-0.058760833
24	0xbc3f0dcc	-0.011661004
25	0xbd6cfa5e	-0.057855956
26	0xbd1bd443	-0.038044225
27	0x3d7d2a6e	0.061808042
28	0xbdc21fbc	-0.09478709
29	0x3de10901	0.109880455
30	0xbb8c7736	-0.004286672
31	0xbd8be838	-0.068314016
32	0xbd2b530a	-0.04182724
33	0x3d7706f2	0.060309358
34	0x3d7f9dbb	0.062406283
35	0xbdcb2b8e	-0.09920417
36	0xbdb3511d	-0.087557055
37	0xbde8c35e	-0.11365388
38	0xbc973cac	-0.018461548
39	0xbd1495ba	-0.036275603
40	0x3d55a7fe	0.052162163
41	0xbd838aa8	-0.06422931
42	0xbcb16d17	-0.021658463
43	0x3d3c272c	0.045935795
44	0xbdaa90e1	-0.08328415
45	0x3d1b3aa2	0.037897713
46	0x3c5cf258	0.013485514
47	0x3d0283f2	0.031864114
48	0x3dfb97fd	0.12284849
49	0xbd8d9015	-0.06912247
50	0xbdf36989	-0.118853636
51	0xbd8c09b6	-0.0683779
52	0x3dfa1888	0.1221171
53	0x3ce8b5b7	0.02840696
54	0x3c7ade23	0.015311751
55	0xbd0def32	-0.034651943
56	0xbd2057d3	-0.039146256
57	0xbc197feb	-0.009368877
58	0x3db73be9	0.08946974
59	0x3dc36601	0.0954094
60	0x3bda6fab	0.006666144
61	0x3dcd82a7	0.100346856
62	0xbd2b5868	-0.041832358
63	0x3dbd746b	0.092507206
64	0x3dae584e	0.085129365
65	0xbdff319f	-0.12460636
66	0x3a940c2b	0.001129513
67	0xbd1f322c	-0.038866207
68	0x3cb3d578	0.021952376
69	0xbd7ccf2d	-0.061721016
70	0xbbe0205c	-0.006839795
71	0xbd6c8bfd	-0.05775069
72	0x3dc9821f	0.09839272
73	0xbc169b62	-0.00919232
74	0xbde0f692	-0.109845296
75	0x3d383f6a	0.04498235
76	0x3cff1036	0.03113566
77	0xbdac8149	-0.08423097
78	0x3debc85e	0.115128264
79	0x3db6ed0d	0.089319326
80	0xbd4b12a6	-0.04957833
81	0xbde5db70	-0.11223495
82	0xbd39be99	-0.045347784
83	0x3d5689e3	0.052377593
84	0x3d967e19	0.0734827
85	0xbc268c17	-0.010165236
86	0xbabd1787	-0.0014426567
87	0xbd2338c7	-0.03984907
88	0xbd84a4d3	-0.0647675
89	0x3db1ff8a	0.08691318
90	0x3d613371	0.0549807
91	0xbdce60b9	-0.10077042
92	0x3daf64c1	0.08564139
93	0xbd183f77	-0.0371699
94	0xbddc1106	-0.107454345
95	0x3d105347	0.03523567
96	0xbd5f44f7	-0.05450913
97	0xbc04d675	-0.008107771
98	0x3c9f468d	0.01944282
99	0x3d25bbba	0.040462233
100	0xbd0eb4ec	-0.03484051
101	0x3d585b0e	0.05282121
102	0xbd9eb7eb	-0.07749923
103	0xbd6c9128	-0.05775562
104	0xbdacf703	-0.08445551
105	0xbdd603dc	-0.10449955
106	0x3d4dd8a2	0.050255425
107	0x3dd20eee	0.10256754
108	0xbd67dd21	-0.05660737
109	0xbd25dd19	-0.04049406
110	0x3dba7b8d	0.09105597
111	0xbda817e4	-0.08207682
112	0xbc304ca1	-0.010760457
113	0xbdada276	-0.084782526
114	0x3d89ffae	0.0673822
115	0x3d6946a0	0.05695212
116	0xbd186d24	-0.03721346
117	0xbdc286de	-0.0949838
118	0x3dab7bc5	0.083732165
119	0x3d98b238	0.074558675
120	0xbd5db77a	-0.054130055
121	0x3df628e4	0.12019518
122	0x3cc29e4f	0.023757128
123	0x3db22800	0.08699036
124	0xbdff2f3d	-0.12460182
125	0x3dbc8bd5	0.09206358
126	0x3dd9b64a	0.10630472
127	0x3d8ab8a0	0.06773496
128	0x3d044c0b	0.032299083
129	0x3d08f65e	0.03343808
130	0x3da61400	0.081092834
131	0x3d540790	0.051765025
132	0x3cc06bed	0.023488963
133	0x3de84e16	0.11343019
134	0xbcb27cf3	-0.021788096
135	0xbda81980	-0.08207989
136	0x3b209883	0.0024504967
137	0xbcdf1cbd	-0.027235383
138	0xbd0b9519	-0.034077737
139	0xbda34397	-0.07971876
140	0x3dab5802	0.083663955
141	0xbd917dfb	-0.07104107
142	0x3ddaced4	0.106839806
143	0x3d68d84e	0.05684691
144	0x3de01646	0.10941748
145	0xbda3e002	-0.080017105
146	0xbdaff937	-0.08592456
147	0x3bedcbae	0.0072569465
148	0xbd2f2d4b	-0.042767804
149	0x3dfa4139	0.122194715
150	0x3dbd42c3	0.092412494
151	0xbda513e5	-0.08060435
152	0x3d96460d	0.0733758
153	0xbdf1d32a	-0.118078545
154	0xbc0e31fb	-0.008678908
155	0xbdfcc89b	-0.1234295
156	0xb9bf1c90	-0.0003645164
157	0xbdef5301	-0.116857536
158	0xb9ad521c	-0.00033058308
159	0xbb9089fb	-0.00441098
160	0x3b9685ed	0.004593602
161	0x3cf2be63	0.0296318
162	0xbdc48faa	-0.09597714
163	0xbdcc620b	-0.09979638
164	0x3dcd107c	0.1001291
165	0x3c91d4f0	0.017801732
166	0xbd291c4f	-0.041286763
167	0xbdacecff	-0.08443641
168	0xbde99ce1	-0.114068754
169	0x3d758d6e	0.05994933
170	0x3dd2f3a0	0.10300374
171	0x3dfbaf9f	0.122893564
172	0xbd55c559	-0.05219016
173	0x3db797bc	0.08964488
174	0xbd998946	-0.07496886
175	0xbd9735e3	-0.07383325
176	0x3da5ddd2	0.080989495
177	0x3de01f3c	0.109434575
178	0x3dea3d1f	0.11437439
179	0xbd787ddc	-0.060666904
180	0x3d9f85da	0.07789202
181	0xbdc3389e	-0.09532283
182	0x3db26761	0.08711124
183	0xbd8ddea9	-0.06927235
184	0x3d90363b	0.07041594
185	0xbdaefc52	-0.0854422
186	0xbdd74bfe	-0.10512541
187	0xbc848d48	-0.01618065
188	0xbdce887c	-0.10084626
189	0xbdc99435	-0.098427214
190	0xbccd67d1	-0.025073918
191	0x3d7e434d	0.0620759
192	0xbd44bf13	-0.048033785
193	0x3c229483	0.009923103
194	0xbdf115fc	-0.11771771
195	0x3ddca7d8	0.10774201
196	0x3d8d3dfc	0.06896588
197	0x3dd968f7	0.106157236
198	0xbc4ba683	-0.012429836
199	0xbdd448c7	-0.10365444
200	0x3d8aef8b	0.067839704
201	0xbd965ecd	-0.073423006
202	0xbdb5e339	-0.0888123
203	0x3cfac730	0.030612558
204	0xbd2f0afd	-0.04273509
205	0xbdd82cef	-0.105554454
206	0xbcc01291	-0.023446353
207	0x3dfe47f6	0.12416069
208	0xbd9c7abc	-0.07640597
209	0xbd3f2cae	-0.04667347
210	0xbce8e639	-0.028430091
211	0x3d377d56	0.044797264
212	0x3d8ab537	0.06772845
213	0x3d35ce25	0.044386048
214	0x3c20695b	0.009790744
215	0x3dbdce7b	0.09267899
216	0x3d393512	0.045216627
217	0xba8a6321	-0.0010558107
218	0x3dfa18b3	0.12211742
219	0x3ce33ae6	0.027738046
220	0xbc25a08a	-0.010109076
221	0x3d064a87	0.03278592
222	0x3de0a3a4	0.10968712
223	0x3dfba759	0.122877784
224	0x3da540b6	0.08068983
225	0x3c9d2450	0.019182354
226	0xbccdedc4	-0.02513779
227	0x3de84eee	0.1134318
228	0x3d9874fe	0.074441895
229	0x3df915dc	0.121623725
230	0xbdc29f90	-0.095030904
231	0x3c6ca505	0.014443641
232	0xbb05b9b3	-0.0020404875
233	0xbc083d32	-0.008315371
234	0x3dc7ff4a	0.097654894
235	0x3dd72ab4	0.10506192
236	0x3d358850	0.04431945
237	0xbdca1f7b	-0.09869286
238	0x3d6243b7	0.05524036
239	0xbd1a6598	-0.037694544
240	0x3daabe74	0.08337107
241	0xbd0518b0	-0.032494247
242	0xbdef58bf	-0.11686849
243	0x3d622bec	0.05521767
244	0x3d744ad3	0.05964167
245	0x3db276e8	0.08714086
246	0xbdc4446a	-0.095833614
247	0x3dad3a0d	0.08458338
248	0xbde38b3f	-0.111105435
249	0x39193e48	0.00014614419
250	0x3cf0c3fc	0.029390328
251	0xbdb5d869	-0.088791676
252	0xbde9b242	-0.11410953
253	0x3ccbbe46	0.024871003
254	0xbd5f0678	-0.05444953
255	0xbcfcf3bb	-0.030877938

layer3.0.bias f4 [16]
0	0xbdd4a233	-0.103824995
1	0x3d5b2a57	0.053507175
2	0x3c694e18	0.01423981
3	0xbbe21ce9	-0.006900419
4	0x3d14cc3a	0.036327578
5	0xbc5143b7	-0.012772492
6	0xbd600273	-0.054689836
7	0xbdebe3f1	-0.11518086
8	0xbda9acd4	-0.082849175
9	0x3d9178db	0.071031295
10	0xbdb16607	-0.08662038
11	0x3df25d16	0.11834161
12	0xbd8c33ab	-0.068457924
13	0x3c20c5f0	0.009812817
14	0x3d3a0f75	0.045424897
15	0x3c36c0f9	0.011154407

fc_lambda.weight f4 [4, 400]
0	0xbd1b04b6	-0.03784629
1	0xbcdd5721	-0.027019085
2	0x3cfd3dc4	0.030913241
3	0xba39b022	-0.0007083436
4	0x3d43730b	0.047717135
5	0xbcc16cac	-0.02361139
6	0xbc9d20cc	-0.019180678
7	0x3c863d79	0.016386734
8	0x3c0aa162	0.008461328
9	0x3bf5d550	0.0075022355
10	0xbc8ba7d2	-0.017047796
11	0xbd07533c	-0.033038363
12	0x3d4bed9b	0.049787145
13	0x3c0bf310	0.008541837
14	0x3d322189	0.043489013
15	0x3d0a5105	0.033768672
16	0xbd49f9be	-0.04931044
17	0x3d30bc4e	0.04314833
18	0x3c812586	0.015764963
19	0xbc2a3e4b	-0.010390828
20	0xba771cfe	-0.00094266224
21	0x3c8b1e12	0.016982112
22	0x3cb3847d	0.021913761
23	0xbcf25f53	-0.02958647
24	0x3b9ebe5e	0.004844471
25	0xbb00f872	-0.0019679335
26	0xbd27487f	-0.040840622
27	0x3d3dfeb1	0.04638547
28	0xbc80c053	-0.015716707
29	0x3c306173	0.010765421
30	0xbc972dd1	-0.018454464
31	0x3cfc739b	0.030816844
32	0xbc2c6411	-0.010521905
33	0xbd2cd3c7	-0.042194154
34	0x3cc5ee02	0.024161343
35	0x3cc72306	0.024308693
36	0xbc8a24fd	-0.01686334
37	0xbca53af7	-0.020169718
38	0x3d34e505	0.044163723
39	0xbbdef123	-0.006803648
40	0x3d2308ea	0.039803423
41	0x3d235b4d	0.039881993
42	0x3c920be7	0.017827941
43	0xbc4a476c	-0.01234613
44	0x3d0f7c47	0.03503063
45	0x3cc54d5e	0.024084743
46	0xbcf79909	-0.03022434
47	0x3d2aa441	0.04166055
48	0xbd23a50b	-0.03995232
49	0x3af76b51	0.0018876587
50	0x3cfda263	0.030961221
51	0xbcdf5e93	-0.027266776
52	0x3d3b0c18	0.04566583
53	0x3ce2bf56	0.027679127
54	0x3abb174c	0.0014273911
55	0x3b49b4e7	0.0030777992
56	0x3ce7da33	0.028302288
57	0x3bd808da	0.006592852
58	0xbd1e97b3	-0.03871889
59	0xbb9aec15	-0.00472785
60	0x3d0f3eb9	0.034971926
61	0x3d2e796c	0.042596266
62	0xbd272961	-0.040810946
63	0xbbef1705	-0.0072964453
64	0xbc212ce1	-0.00983736
65	0xbceaec8b	-0.028677246
66	0x3d1ff046	0.039047502
67	0xbc4ed759	-0.012624585
68	0xbd17ef70	-0.03709358
69	0x3c9dbbe3	0.01925463
70	0x3ccaa545	0.02473701
71	0x3c959636	0.018260103
72	0x3c8456f9	0.016154753
73	0x3c33a352	0.010964232
74	0xbd2cb35f	-0.04216325
75	0x3d30a908	0.04312995
76	0x3d348d55	0.044080097
77	0x3d1b3d99	0.03790054
78	0xbd265c31	-0.040615264
79	0xbd04e02d	-0.032440353
80	0xbcb08558	-0.021547958
81	0xbca8f7a7	-0.020625902
82	0xbc9234dd	-0.017847473
83	0x3c399c19	0.0113287205
84	0x3baa6819	0.0052003977
85	0xbcf40e36	-0.029791933
86	0x3ba78abf	0.0051129754
87	0xbd1428d2	-0.03617174
88	0x3d37d657	0.044882145
89	0xbcc62648	-0.024188176
90	0x3c60244c	0.013680529
91	0x3c0c61de	0.008568255
92	0xbd0fab21	-0.03507531
93	0x3ce2772f	0.027644722
94	0x3c730028	0.01483158
95	0xbd461c3e	-0.048366778
96	0x3cea5735	0.028606037
97	0xbc15d488	-0.00914491
98	0x3b3844b6	0.0028117127
99	0xbbc74b8c	-0.006082004
100	0x3ad15dfa	0.0015973442
101	0xbc7b9c2a	-0.015357057
102	0xbd059035	-0.03260823
103	0x3d16a381	0.036777023
104	0xbd3395bb	-0.043843966
105	0x3d240413	0.040042948
106	0xbc289f69	-0.010291913
107	0xba9ed6d9	-0.0012118473
108	0xbd1f8fd0	-0.03895551
109	0xbc704270	-0.014664277
110	0xbc6fa9f2	-0.01462792
111	0x3d43f09a	0.047836877
112	0x3d42b9fb	0.047540646
113	0xbd3e42b3	-0.046450328
114	0x3c871a41	0.016492011
115	0xbc5760d7	-0.013145647
116	0xbd38cdad	-0.045118023
117	0x3cb9f45b	0.022699526
118	0x3d081737	0.033225264
119	0xbc1dfd78	-0.009642951
120	0xbc1d99b7	-0.009619168
121	0x3c9c0d38	0.019049272
122	0x3ce2c01a	0.027679492
123	0x3b85b0a3	0.0040798946
124	0xbd159ba8	-0.0365254
125	0xbcab2acc	-0.02089443
126	0xbd3e480b	-0.046455424
127	0x3cf083ae	0.029359665
128	0x3cb2afd0	0.02181235
129	0x3d3805f4	0.044927552
130	0xbcb47601	-0.022028925
131	0xbd47bd3a	-0.048764445
132	0xbbbf8ba3	-0.0058455034
133	0x3d194189	0.037416015
134	0x3d47f289	0.048815284
135	0x3c1c1fb9	0.009529048
136	0xbb9b8565	-0.0047461265
137	0xbd3e362f	-0.046438392
138	0x3c0ac6c2	0.008470239
139	0x3c12ceb3	0.008960414
140	0xbd317c43	-0.043331396
141	0xbcd061fa	-0.025437344
142	0x3b0bdd76	0.0021341718
143	0xbd231414	-0.03981407
144	0xbca94367	-0.020662023
145	0x3c8df0df	0.01732677
146	0x3c02c3ea	0.00798128
147	0x3d01bd5d	0.03167473
148	0x3bd36128	0.006450791
149	0xbcb13620	-0.021632254
150	0x3d4869c6	0.048929
151	0xbcefc6c6	-0.029269587
152	0xbd24b342	-0.040210016
153	0x3cae02d7	0.021241589
154	0xbd49ff91	-0.049315993
155	0x3b812351	0.0039409776
156	0x3c62a488	0.013833173
157	0xbb93ee67	-0.0045145038
158	0x3c846baf	0.016164629
159	0x3bfff54b	0.0078112236
160	0x3ca4eecc	0.020133398
161	0xbc2182d0	-0.009857848
162	0x3d196bd5	0.037456352
163	0xbd2b4be8	-0.041820437
164	0x3d0ab417	0.033863153
165	0x3d16fd3c	0.036862597
166	0x3bdc3e0c	0.0067212638
167	0x39a42e48	0.00031315
168	0x3d286526	0.041112088
169	0x3d326ca1	0.043560628
170	0xbd186964	-0.037209883
171	0x3d062a08	0.032754928
172	0xbbc54c05	-0.006021025
173	0x3c85cb3a	0.016332258
174	0x3b37aed9	0.0028027801
175	0xbcdcef9a	-0.02696972
176	0x3afbbd85	0.0019206261
177	0xbd4973d8	-0.049182743
178	0x3c7cf084	0.015438203
179	0xbd14d3d4	-0.036334828
180	0x3d1f1867	0.03884163
181	0xbc5cdaa1	-0.01347986
182	0x3cb17a16	0.02166466
183	0xbc8b497b	-0.017002812
184	0x3c35e362	0.011101576
185	0x3d30122f	0.04298609
186	0x3cde9ba1	0.027173819
187	0xbc568260	-0.013092607
188	0x3c3efcdf	0.011656969
189	0xbc9a0539	-0.018801318
190	0x3d1b0f01	0.037856106
191	0xbd246541	-0.040135626
192	0x3cb15058	0.021644756
193	0x3c0d8638	0.008637957
194	0xbcb44c15	-0.022008935
195	0x3cd3114d	0.025765086
196	0x3ce10149	0.027466433
197	0x3c0d8358	0.008637272
198	0xbd4a7ac6	-0.049433492
199	0xbd2b5f6e	-0.041839056
200	0xbba39203	-0.004991771
201	0x3d1b3cd4	0.037899807
202	0xbbb26fec	-0.005445471
203	0xbd1f1c49	-0.038845334
204	0xbd442c26	-0.047893666
205	0x3d11dd50	0.03561145
206	0x3ca01406	0.019540798
207	0xbb931683	-0.0044887676
208	0x3cc93eaa	0.024566013
209	0xbc953b9d	-0.018216902
210	0x3cb7d208	0.022439018
211	0xbbe48107	-0.006973389
212	0x3c05366b	0.00813065
213	0xbbca2a71	-0.00616961
214	0xbd3de6ca	-0.046362676
215	0x3c599bdd	0.01328179
216	0xbd1d42db	-0.038393836
217	0x3c5ec604	0.013597015
218	0x3cd43486	0.025903951
219	0xbd3b257b	-0.04569004
220	0x3d2c68d6	0.042092167
221	0x3a4c575c	0.0007795
222	0xbbf7c498	-0.0075612776
223	0x3c99de21	0.018782677
224	0x3ca44240	0.020051122
225	0x3d3776b9	0.044790957
226	0x3c832202	0.016007427
227	0xbd12fde6	-0.035886668
228	0xbb90c522	-0.0044180313
229	0x3c9a55ed	0.0188398
230	0xbc63ac5c	-0.013896074
231	0x3c9dce11	0.0192633
232	0x3c4e7d6a	0.012603143
233	0xbd03efb3	-0.032211017
234	0x3d4b7b85	0.049678344
235	0x3d3cc452	0.046085663
236	0xbd2bd913	-0.041955065
237	0x3c272a76	0.010202995
238	0x3c39dd80	0.011344314
239	0xbc77d405	-0.015126233
240	0x3d2b69cd	0.041848946
241	0x3ba34307	0.0049823555
242	0xbcdcff2d	-0.026977146
243	0x3cdf1a61	0.027234258
244	0x3cae186c	0.02125188
245	0xbca25b31	-0.019818874
246	0xbd235d53	-0.039883923
247	0x3d3ad28a	0.045610942
248	0xbbc5be0a	-0.0060346173
249	0xbcd12777	-0.025531514
250	0xbd42b15a	-0.047532417
251	0xbbcf6191	-0.0063287695
252	0xbcf0173c	-0.029307954
253	0x3d25652f	0.0403797
254	0x3cf81115	0.030281583
255	0x3d11a695	0.035559256

fc_lambda.bias f4 [4]
0	0xbd0f1b80	-0.034938335
1	0x3cd62426	0.026140284
2	0x3d3c8b36	0.0460312
3	0xbc3dac0b	-0.011576663
