saved_models/REINFORCE_MLP_gamma_0.8_lr_0.0001_steps_200_tmax_100.ckpt (torch, 9253 bytes, 6 tensors)

linear1.weight f4 [32, 16]
0	0x3e6b5951	0.2298329
1	0x3da098e9	0.07841665
2	0xbe731326	-0.23737773
3	0x3e6c7dcb	0.23094861
4	0xbe5672cd	-0.2094223
5	0x3e432868	0.19058383
6	0xbd3402dd	-0.043948043
7	0xbd0fe1df	-0.035127517
8	0x3e78701b	0.24261515
9	0xbe686948	-0.22696412
10	0xbe6f600e	-0.23376486
11	0xbdc364ce	-0.09540711
12	0x3e64a03d	0.22326751
13	0x3cb6314e	0.022240307
14	0x3e1268ff	0.14297865
15	0xbe6f143c	-0.23347563
16	0x3de2b277	0.11069196
17	0x3e35fcb9	0.17772187
18	0xbe37f11d	-0.17963071
19	0xbe1f8074	-0.15576345
20	0x3d8d7b2f	0.06908261
21	0xbd6d5986	-0.057946704
22	0xbd633a67	-0.05547562
23	0xbe2c2809	-0.16812147
24	0x3dc22643	0.09479954
25	0x3e391b9a	0.18076935
26	0x3dce9c53	0.1008841
27	0xbe3669bc	-0.17813772
28	0xbe41a7c6	-0.18911657
29	0xbdc260e2	-0.09491135
30	0xbda0b002	-0.07846071
31	0xbd9aeff3	-0.07565298
32	0x3c9e46ea	0.019320924
33	0xbe19a802	-0.15005496
34	0x3e442e15	0.19158204
35	0xbda761be	-0.0817294
36	0x3e41b2d8	0.1891588
37	0x3e551d6c	0.20812005
38	0xbd2eba43	-0.0426581
39	0xbb31c4a8	-0.0027125273
40	0x3e074c2b	0.1321265
41	0xbdf5864f	-0.11988508
42	0xbe4003b0	-0.18751407
43	0x3e010dde	0.12602946
44	0xbe503566	-0.2033287
45	0x3dc3dabf	0.09563207
46	0x3d47079a	0.048591234
47	0xbd3e3c4c	-0.046444222
48	0x3e50d661	0.20394279
49	0x3e23a86e	0.1598222
50	0xbd0acd65	-0.033887286
51	0x3d996a37	0.07490962
52	0xbde51729	-0.11186058
53	0x3e69dde1	0.22838546
54	0xbe1bdb97	-0.15220486
55	0xbe483cc0	-0.19554424
56	0xbdcb9152	-0.09939827
57	0xbd8cc4f5	-0.06873504
58	0xbe2cd59e	-0.16878363
59	0xbe34fd70	-0.17674804
60	0x3e335340	0.17512226
61	0xbe6c10c1	-0.23053266
62	0xbd6439d8	-0.055719227
63	0x3d2a5f63	0.041594874
64	0x3cb8ab68	0.02254267
65	0x3e425e4c	0.18981284
66	0x3d96d787	0.07365327
67	0xbe6d7969	-0.23190846
68	0x3e10c895	0.14139016
69	0x3e293c56	0.16526923
70	0x3dc44781	0.09583951
71	0xbe75f382	-0.24018672
72	0x3d4b9762	0.049704917
73	0x3a6a338a	0.00089340715
74	0x3e6a5e4f	0.22887538
75	0xbd9ebe74	-0.0775117
76	0xbd0f9584	-0.0350547
77	0x3dcaa672	0.09895028
78	0xbd4648eb	-0.048409384
79	0xbe0bd233	-0.13654403
80	0x3e38cc84	0.18046767
81	0x3d1494a0	0.036274552
82	0xbe4ea419	-0.20179786
83	0x3d83d3ef	0.064369075
84	0xbe1f2d62	-0.15544656
85	0xbca6430b	-0.02029564
86	0x3e0ca071	0.13733079
87	0x3d2cd5bc	0.04219602
88	0x3e05e2cc	0.13074797
89	0x3b6eca2a	0.0036436417
90	0xbdd7fdb5	-0.10546438
91	0x3e7b5502	0.24544147
92	0x3d135a51	0.035974804
93	0xbe7a589d	-0.24447866
94	0xbb7d6231	-0.0038663263
95	0xbdf85db1	-0.12127245
96	0x3d9d93d4	0.076942116
97	0x3e22ec24	0.15910393
98	0x3e6f25db	0.23354284
99	0x3e166824	0.14688164
100	0x3e02cfdd	0.12774606
101	0xbe3f4633	-0.18679123
102	0x3d97702a	0.073944405
103	0xbe37f341	-0.17963888
104	0xbe6a52e7	-0.22883187
105	0x3e6f6acf	0.23380588
106	0x3b426bea	0.0029666373
107	0x3de24f97	0.11050337
108	0x3de36b19	0.11104412
109	0x3c7d9a6b	0.015478711
110	0x3ce3cd3a	0.02780782
111	0x3cd548b7	0.02603565
112	0x3e517af4	0.20457059
113	0xbe45ce99	-0.19317092
114	0x3e78e722	0.2430692
115	0xbe2f4b18	-0.1711849
116	0xbe778cae	-0.24174759
117	0x3d7b5e1a	0.06136904
118	0xbe400adb	-0.18754141
119	0xbe38adb9	-0.1803502
120	0x3d0e8c18	0.034801573
121	0xbe2ce93c	-0.16885847
122	0x3d856334	0.06513062
123	0x3b84102e	0.004030249
124	0x3dcc039c	0.09961626
125	0xbe04e1f9	-0.12976827
126	0xbe028bfb	-0.12748711
127	0x3e2e7b93	0.17039327
128	0xbd9ce637	-0.076610975
129	0x3d2c7678	0.042105168
130	0xbd84f66a	-0.06492312
131	0x3e663d23	0.2248426
132	0xbd106642	-0.03525377
133	0xbe779d7f	-0.24181174
134	0x3e009434	0.12556535
135	0x3e4cb82b	0.1999213
136	0xbdebc542	-0.11512233
137	0x3e809245	0.25111595
138	0x3e045591	0.12923266
139	0x3d1b497a	0.03791187
140	0xbdca8ac9	-0.098897524
141	0x3dd9d5f4	0.106365114
142	0x3cf2314c	0.029564522
143	0x3d9769f1	0.073932536
144	0x3e706525	0.23476084
145	0x3e204485	0.15651138
146	0x3e6453c9	0.22297587
147	0x3e1e7c8a	0.15477195
148	0x3e42f879	0.19040097
149	0xbda0e88e	-0.07856856
150	0xbe17869d	-0.14797445
151	0x3d6f42ee	0.05841344
152	0xbe1482c3	-0.14503007
153	0xbe72393d	-0.23654647
154	0x3e57d9e6	0.21079215
155	0x3e27aed6	0.16375288
156	0x3e1bb4c2	0.15205672
157	0xbd9bb22d	-0.07602344
158	0x3dd101a8	0.10205394
159	0xbe36b170	-0.17841125
160	0x3e5898f2	0.21152094
161	0x3dddbf14	0.10827461
162	0xbe1a5557	-0.15071617
163	0x3e098509	0.13429655
164	0xbcd4f98b	-0.025997898
165	0xbd93bee2	-0.072141424
166	0x3e676f95	0.22601159
167	0xbdfdd92d	-0.123949386
168	0x3e002b39	0.12516488
169	0x3d9f5cc7	0.07781368
170	0x3e4819ac	0.19541043
171	0xbe6f591e	-0.2337384
172	0x3e5a2ef4	0.21306974
173	0x3bdb6249	0.006695066
174	0xbdf08365	-0.117438115
175	0xbe77524b	-0.24152486
176	0xbde536a3	-0.11192062
177	0xbe30964c	-0.17244834
178	0x3e71e3c6	0.23622045
179	0xbe1f4aab	-0.15555827
180	0xbc2fa835	-0.010721256
181	0xbe1cf77a	-0.1532878
182	0xbdd69da8	-0.10479289
183	0x3d01e6c1	0.031714205
184	0x3deef14b	0.11667117
185	0x3e631ecf	0.22179721
186	0xbe6af3f2	-0.2294462
187	0x3e0a71b9	0.13519944
188	0x3dca446c	0.09876332
189	0x3d01c4ae	0.03168171
190	0xbd52006f	-0.051269945
191	0xbdd1820a	-0.10229881
192	0xbe1a089a	-0.15042344
193	0x3d9d8617	0.07691591
194	0x3e763f50	0.2404759
195	0x3cec389b	0.028835585
196	0x3e0d30aa	0.13788095
197	0xbe79beac	-0.24389142
198	0x3e5df369	0.21674885
199	0xbe14878e	-0.14504835
200	0xbda103f4	-0.07862082
201	0x3e40f56f	0.18843625
202	0xbe0291b3	-0.12750892
203	0x3d29a0cf	0.041413125
204	0x3e1ddd9e	0.15416571
205	0xbe25ed04	-0.16203696
206	0xbb91c77f	-0.0044488306
207	0x3d385809	0.045005832
208	0x3d639384	0.055560604
209	0x3e0bb323	0.13642554
210	0x3e4c8304	0.19971853
211	0x3e1e2e4c	0.15447348
212	0x3c45c315	0.012070437
213	0x3e15a360	0.14613104
214	0x3e5c4509	0.2151071
215	0xbe3df035	-0.18548663
216	0x3e4c94ab	0.19978587
217	0x3e09e095	0.13464577
218	0x3d8408b3	0.06446972
219	0xbe5e6d47	-0.21721373
220	0xbe4cd5e9	-0.20003475
221	0xbd64b66a	-0.055838026
222	0xbd8e3b6b	-0.06944927
223	0x3e613d4d	0.2199604
224	0xbe20fe32	-0.15721968
225	0xbd1d64b1	-0.038426105
226	0x3e772920	0.24136782
227	0x3e737139	0.2377366
228	0xbe40c89f	-0.18826531
229	0x3e03e918	0.12881887
230	0x3e644616	0.2229236
231	0x3e7a007e	0.2441425
232	0x3d6b6ac7	0.057474878
233	0xbd266115	-0.04061993
234	0x3e77589d	0.24154897
235	0xbe069930	-0.13144374
236	0x3b1fcd3f	0.002438381
237	0x3e5d5181	0.21613123
238	0xbe5a5620	-0.21321917
239	0x3e4d022c	0.2002036
240	0x3de8b561	0.1136272
241	0x3e67e547	0.22646056
242	0x3ddf9282	0.10916616
243	0xbe5d1bb8	-0.21592605
244	0x3d283bd9	0.0410727
245	0x3e6dd3d8	0.23225343
246	0x3e3ad16d	0.18243952
247	0xbc0aa1a0	-0.008461386
248	0xbe28ec2e	-0.16496345
249	0x3e351895	0.17685159
250	0x3d4e0603	0.050298702
251	0xbe1f4f17	-0.15557514
252	0x3d40f59b	0.047109228
253	0x3e7b65ef	0.24550603
254	0xbe3bf594	-0.183554
255	0x3da1dab2	0.07903041

linear1.bias f4 [32]
0	0xbd208603	-0.039190304
1	0x3e31b481	0.17354013
2	0xbe6ca79a	-0.2311081
3	0x3e7abab5	0.24485286
4	0x3e39e39c	0.18153232
5	0xbdd82dfc	-0.10555646
6	0xbddcf1a8	-0.1078828
7	0x3da3b090	0.07992661
8	0xbc5593f5	-0.013035764
9	0xbdd23a0b	-0.10264977
10	0x3e6e491f	0.23270081
11	0xbe08b2f9	-0.13349523
12	0xbd3253b3	-0.043536853
13	0xbdef293b	-0.11677786
14	0x3d3bf67e	0.04588937
15	0x3e754532	0.23952177
16	0x3e2af5c1	0.1669531
17	0xbaa18018	-0.00123215
18	0x3dc904db	0.09815379
19	0xbdb31aaf	-0.08745324
20	0xbde88fde	-0.113555655
21	0x3e045c82	0.12925914
22	0x3e0122c9	0.12610926
23	0xbdfa5b93	-0.12224498
24	0x3df23424	0.11826351
25	0x3e559f86	0.20861635
26	0xbd8b93d2	-0.06815304
27	0x3e25bbd0	0.16184926
28	0xbd0d3545	-0.03447463
29	0xbd6947bd	-0.05695318
30	0x3d8a4a4a	0.06752451
31	0xbe774ac3	-0.24149613

linear2.weight f4 [32, 32]
0	0xbda6c4a5	-0.08142976
1	0xbcf74729	-0.030185299
2	0xbd966687	-0.07343774
3	0x3d1cb72f	0.038260635
4	0x3e2d7d5f	0.16942357
5	0xbdc478a6	-0.09593324
6	0xbda00ee2	-0.07815339
7	0x3e2f97d9	0.17147769
8	0x3cc0e495	0.023546496
9	0xbdf9a3d9	-0.121894546
10	0x3e1f7afb	0.15574257
11	0xbe285eb4	-0.16442376
12	0xbdae641d	-0.08515189
13	0xbd691534	-0.056904987
14	0x3e0f2717	0.13979755
15	0x3dcfa4be	0.10138844
16	0x3dc6fbf6	0.097160265
17	0x3d0e130e	0.03468614
18	0xbe15e983	-0.14639859
19	0xbd8dda54	-0.069264084
20	0xbdfefa19	-0.12450046
21	0x3df025b2	0.1172594
22	0xbdf4afc8	-0.1194759
23	0xbd25a6eb	-0.04044239
24	0xbdaca6cb	-0.08430251
25	0x3dae4555	0.08509318
26	0x3cfd1415	0.030893365
27	0xbcd1891f	-0.02557808
28	0x3e15cea7	0.14629613
29	0xbdca9ed0	-0.09893572
30	0x3e25abf9	0.16178884
31	0xbdd7be22	-0.10534312
32	0xbce5a5f6	-0.028033238
33	0x3e28ef46	0.16497526
34	0x3d8bfe5f	0.06835627
35	0x3d91e624	0.07123974
36	0xbe072c76	-0.13200554
37	0x3e0dbfb1	0.13842656
38	0xbe2de0ec	-0.16980332
39	0x3d2f203a	0.042755343
40	0x3d267f0c	0.040648505
41	0xbe08f5d7	-0.1337503
42	0x3d143d84	0.03619148
43	0x3d937112	0.07199301
44	0x3dac7316	0.084203884
45	0xba73bf58	-0.0009298227
46	0xbe198a1b	-0.1499409
47	0x3d9bbb85	0.07604126
48	0xbdb252f8	-0.08707231
49	0xbd6f91a0	-0.05848849
50	0xbd833b2f	-0.06407773
51	0x3e1bcaa5	0.15214022
52	0x3d7ae4c3	0.06125332
53	0xbdad1673	-0.084515475
54	0x3e0eb4ee	0.13936207
55	0xbe0966d5	-0.13418134
56	0xbd2cc23c	-0.042177424
57	0x3d877feb	0.06616195
58	0xbdf1f5b7	-0.118144445
59	0xbdf0e0a9	-0.117616005
60	0xbd1785d3	-0.03699286
61	0x3d9aba28	0.07555038
62	0xbcec3e94	-0.028838433
63	0x3df9593f	0.121752255
64	0xbda44089	-0.080201216
65	0x3d91625b	0.07098838
66	0x3d7beb5d	0.061503757
67	0x3dd6c650	0.10487044
68	0xbd0d8bb5	-0.034557063
69	0xbe03cf23	-0.12871985
70	0x3e1b74dc	0.15181297
71	0x3bd602cf	0.0065310965
72	0x3c44f16b	0.012020449
73	0xba2df2c2	-0.00066356
74	0xbda2c20e	-0.07947169
75	0x3dbbeff4	0.09176627
76	0xbe212e2d	-0.15740271
77	0xbc75c8ec	-0.015001517
78	0xbda61ef3	-0.08111372
79	0xbcb6adbe	-0.022299644
80	0x3c2d586e	0.010580165
81	0x3de305bc	0.11085078
82	0xbd6e3d3e	-0.058163874
83	0xbd50cb76	-0.050975285
84	0xbdbfe499	-0.093697734
85	0x3e1b55ec	0.15169495
86	0xbdddc8e2	-0.10829331
87	0x3ddcb7f9	0.107772775
88	0xbc8043f6	-0.015657406
89	0xbe300cb3	-0.17192344
90	0xbda50941	-0.08058406
91	0xbd43a3c1	-0.04776359
92	0xbca9fc8b	-0.020750305
93	0xbc5e9de4	-0.013587449
94	0xbe144122	-0.14477971
95	0x3dc3e70a	0.095655516
96	0x3cbd710d	0.023125196
97	0xbe2c9884	-0.16855055
98	0x3d1ef571	0.03880829
99	0xbe13010a	-0.14355865
100	0x3d246611	0.0401364
101	0xbe3269ba	-0.17423144
102	0xbbd1a595	-0.0063979127
103	0x3c64cc92	0.013964789
104	0x3de45a19	0.11149997
105	0xbdff2a72	-0.12459268
106	0xbd469b46	-0.048487924
107	0xbdcf0081	-0.10107518
108	0x3dcb32f9	0.09921832
109	0xbdb59a12	-0.08867277
110	0xbdc52a16	-0.09627168
111	0x3d803552	0.0626017
112	0x3c0b9fb8	0.008521967
113	0x3d459501	0.048237804
114	0x3dc2bb1b	0.09508344
115	0xbce20a0a	-0.027592678
116	0x3dfc0527	0.1230567
117	0xbdf7c9ff	-0.120990746
118	0x3dac45b0	0.08411729
119	0x3d98740d	0.0744401
120	0x3d681c20	0.056667447
121	0x3d34844d	0.044071484
122	0x3e203f79	0.15649213
123	0xbe0fd604	-0.14046484
124	0xbdf6f25d	-0.12057946
125	0xbd5bf311	-0.053698603
126	0x3dacac70	0.08431327
127	0xbdc2a7ce	-0.095046625
128	0x3e1471be	0.14496514
129	0x3e17acb5	0.14811976
130	0xbd9f0bea	-0.07765944
131	0xbbbf2c19	-0.0058341143
132	0x3e24d4fd	0.16096874
133	0x3e28e5d2	0.1649392
134	0xbdbdd8f6	-0.09269898
135	0x3e2c22e8	0.1681019
136	0x3b2481dd	0.0025101819
137	0xbca44305	-0.020051489
138	0x3c618224	0.013763938
139	0xbdcc2bc6	-0.099692866
140	0x3e1a51a8	0.15070212
141	0x3e0b2abb	0.13590519
142	0x3e074e7f	0.13213538
143	0x3d215413	0.03938682
144	0xbd5f36bc	-0.05449556
145	0x3e0a0a9e	0.13480613
146	0xbd6bdf7e	-0.057586186
147	0xbdea8cfd	-0.11452673
148	0xbe2daeae	-0.16961166
149	0xbde1cafc	-0.11025044
150	0xbb3790e7	-0.0028009953
151	0xbd099826	-0.033592366
152	0x3c976831	0.0184823
153	0xbd1aa1a6	-0.037751816
154	0x3e2bb64f	0.16768764
155	0x3e327082	0.17425731
156	0x3d02d0f4	0.031937554
157	0x3c6ddc3c	0.01451784
158	0xbdfd459d	-0.12366793
159	0xbd411c6b	-0.047146242
160	0xbd8a62a2	-0.06757094
161	0xbe173558	-0.14766443
162	0xbcd3420b	-0.025788328
163	0xbd575cac	-0.052578613
164	0x3e1618a0	0.14657831
165	0xbd9e4395	-0.07727734
166	0xbdfd814c	-0.12378177
167	0xbdf95613	-0.121746205
168	0xbd07b70d	-0.033133555
169	0xbe2704a3	-0.16310363
170	0xbd5dfe3d	-0.05419754
171	0x3e349266	0.17633972
172	0x3cc4e7c9	0.024036305
173	0x3d4670b2	0.04844732
174	0xbe0d90ec	-0.13824815
175	0xbd0f76c0	-0.03502536
176	0xbd2f167b	-0.04274605
177	0x3dabf26f	0.0839585
178	0x3de4229f	0.11139416
179	0xbe284d16	-0.16435656
180	0xbe1d8a9a	-0.15384904
181	0xbe0a3d31	-0.13499905
182	0xbe2f9dc1	-0.17150022
183	0x3dd1a9e4	0.10237482
184	0x3c1c74a6	0.0095492955
185	0x3dece2fb	0.115667306
186	0x3e134aab	0.14383952
187	0xbd0dc9c2	-0.03461624
188	0x3d143606	0.036184333
189	0x3bfc1866	0.007693338
190	0xbd360b49	-0.044444356
191	0xbdc42e83	-0.09579184
192	0x3de9ba45	0.11412481
193	0xbe02f5e6	-0.12789115
194	0xbe0b6855	-0.13614018
195	0x3de14741	0.10999919
196	0xbd8168ac	-0.06318793
197	0x3d988675	0.07447521
198	0xbd473f3c	-0.04864429
199	0x3dd71306	0.10501675
200	0xbe0ab379	-0.13545026
201	0xbb8ca60e	-0.004292256
202	0x3c821bbc	0.015882365
203	0x3e094c1a	0.13407937
204	0x3bf27904	0.00739968
205	0x3e1cd62d	0.15316077
206	0xbe14d499	-0.14534225
207	0xbe076ba9	-0.13224663
208	0x3c4c3a3d	0.012465057
209	0xbcfd794a	-0.030941624
210	0x3d416d2a	0.047223248
211	0x3e295f87	0.16540347
212	0x3ded574c	0.11588916
213	0x3d3023ab	0.043002766
214	0xbdee7fd7	-0.11645477
215	0xbdee7e24	-0.11645153
216	0x3db60714	0.08888069
217	0x3ddaa84e	0.10676633
218	0x3d8f2903	0.06990244
219	0x3ce3c477	0.027803643
220	0x3e2acd1d	0.16679807
221	0x3ced7088	0.028984323
222	0x3d1737b0	0.036918342
223	0x3e2dd3c9	0.16975321
224	0x3cbe263f	0.023211597
225	0x3de75cb6	0.1129698
226	0x3b70e542	0.0036757742
227	0xbe0698a5	-0.13144167
228	0x3da43bdd	0.080192305
229	0xbe0e18f8	-0.13876712
230	0xbdc19479	-0.09452147
231	0xbd895bec	-0.06706986
232	0xbe1b4bc2	-0.15165618
233	0xbccaff39	-0.024779903
234	0x3dcf69ee	0.10127626
235	0x3d273d1b	0.04082976
236	0xb98ae9d0	-0.00026495615
237	0xbd2720ff	-0.040802952
238	0x3e1aa347	0.15101348
239	0xbd01cce4	-0.03168954
240	0x3d0ccc42	0.034374483
241	0x3d8db7f0	0.06919849
242	0x3e149cbf	0.14512919
243	0x3cc96f38	0.024589166
244	0x3d7184e3	0.05896462
245	0xbca0417f	-0.019562481
246	0x3e225020	0.15850878
247	0xbc5d70c0	-0.013515651
248	0x3e3274b6	0.17427334
249	0xbc95cc91	-0.018286021
250	0x3e250c83	0.16118054
251	0x3e12c6b6	0.14333615
252	0x3e154994	0.14578849
253	0xbe0b72b3	-0.13617973
254	0x3e2ef533	0.17085724
255	0x3e1f35c3	0.15547852

linear2.bias f4 [32]
0	0x3c8f7bdb	0.017515114
1	0xbdc5d450	-0.09659636
2	0x3dcf6bf1	0.1012801
3	0xbcc916e0	-0.02454704
4	0xbcd509c6	-0.026005637
5	0x3c8d7bdd	0.017270977
6	0xbe2df2f9	-0.16987218
7	0x3e272576	0.16322884
8	0x3e0a137d	0.13483997
9	0x3daf9bed	0.08574662
10	0x3e165761	0.1468177
11	0x3d54ccf1	0.05195326
12	0x3db69f64	0.0891712
13	0xbd02e3b6	-0.031955443
14	0x3bd4c031	0.0064926376
15	0x3c211349	0.009831258
16	0xbdd99086	-0.10623269
17	0xbca9d229	-0.020730095
18	0xbc66f8b6	-0.014097383
19	0xbdf6b973	-0.120470904
20	0xbc904255	-0.017609755
21	0x3dfe9b9c	0.12432024
22	0x3db83e11	0.08996213
23	0x3daeeae5	0.08540896
24	0xbdd0da8b	-0.10197934
25	0x3d110a33	0.035410117
26	0x3d95a700	0.07307243
27	0x3db075fb	0.08616253
28	0xbd94a641	-0.07258273
29	0x3d77a441	0.06045938
30	0x3e2867cf	0.1644585
31	0x3e0fbfe6	0.14038047

linear3.weight f4 [4, 32]
0	0x3da7e38c	0.08197698
1	0x3bc38fc2	0.005968065
2	0xbe322f7b	-0.17400925
3	0xbc81d65d	-0.015849287
4	0xbdbca60d	-0.09211359
5	0x3d54b5bb	0.051931124
6	0x3d0241e6	0.031801127
7	0x3e17b4da	0.14815083
8	0xbe2dfc74	-0.16990834
9	0xbda0e03b	-0.078552686
10	0x3e231040	0.15924168
11	0xbdf39927	-0.11894446
12	0x3cff4941	0.03116286
13	0x3d00214b	0.03128175
14	0x3d7dced2	0.061964817
15	0xbd4e7bfd	-0.050411213
16	0xbe105ca0	-0.14097834
17	0x3d4aa300	0.049471855
18	0x3d98ca88	0.07460505
19	0xbe2d6e1d	-0.16936536
20	0xbd8b36da	-0.067975715
21	0x3d8e08ff	0.069353096
22	0xbe068a60	-0.13138723
23	0x3e11629c	0.14197773
24	0xbdacb2d7	-0.084325485
25	0xbd582980	-0.052773952
26	0xbdcd0517	-0.100107364
27	0x3dce7135	0.10080186
28	0xbde23b8d	-0.11046515
29	0xbc85a917	-0.01631598
30	0xbd7a3480	-0.061085224
31	0x3d3433a6	0.04399457
32	0xbab24cd7	-0.0013603222
33	0xbc1656c5	-0.009175961
34	0xbcfe209a	-0.031021405
35	0x3d485f30	0.048918903
36	0xbd647778	-0.055777997
37	0xbd0ac70e	-0.03388124
38	0xbd90f0d5	-0.07077185
39	0xbdfcafee	-0.123382434
40	0xbccbd5d6	-0.024882238
41	0x3db7ed4e	0.08980809
42	0xbe03db2f	-0.1287658
43	0xbe1f90c2	-0.15582564
44	0xbdb440c2	-0.08801414
45	0xbdc4cda8	-0.09609538
46	0x3c2cfb7f	0.010558008
47	0x3c67779e	0.01412764
48	0x3d928774	0.07154742
49	0xbe169343	-0.14704613
50	0x3e12ecf6	0.14348206
51	0xbbe30ca7	-0.0069289985
52	0x3ca4560c	0.020060562
53	0xbdeb0a21	-0.11476541
54	0xbd9406ca	-0.072278574
55	0x3c16779f	0.009183793
56	0xbdbfee5d	-0.09371636
57	0xbd4e1aff	-0.050318714
58	0x3ce82fd0	0.028343111
59	0xbc71a9fa	-0.014749998
60	0xbc97d561	-0.018534364
61	0x3d6445bf	0.055730578
62	0xbd3f2c00	-0.04667282
63	0x3dd88ad8	0.10573357
64	0xbd2c1332	-0.042010494
65	0xbc14831b	-0.009064461
66	0xbe070b03	-0.13187794
67	0x3d1dbcd2	0.03851015
68	0x3e113f4b	0.141843
69	0x3ddc2947	0.107500605
70	0x3df20885	0.11818031
71	0x3dd30eba	0.10305543
72	0xbdf1f796	-0.118148014
73	0x3d0d3f4c	0.034484193
74	0xbd990e3c	-0.07473418
75	0x3cc53468	0.02407284
76	0xbe2624e4	-0.1622501
77	0xbe01ad4d	-0.12663765
78	0x3e31eaee	0.17374775
79	0xbe140675	-0.14455588
80	0xbdb6d5ff	-0.08927535
81	0x3d74c596	0.059758745
82	0xbca240cd	-0.01980629
83	0xbe359570	-0.17732787
84	0x3e22e67c	0.15908235
85	0x3d40c254	0.047060326
86	0xbe063cc5	-0.13109119
87	0xbe1a7676	-0.15084252
88	0x3d6f6e17	0.0584546
89	0xbcacb89a	-0.021084119
90	0x3d6c0218	0.057619184
91	0xbd802832	-0.06257667
92	0x3e31c8c6	0.17361745
93	0x3d18c31d	0.03729545
94	0xbdfcbd99	-0.123408504
95	0xbdc0015e	-0.09375261
96	0xbda9a2f0	-0.08283031
97	0xbd270843	-0.040779363
98	0x3e03e56e	0.12880489
99	0xbd8c00d7	-0.06836098
100	0x3d8158a8	0.06315738
101	0x3b9eda23	0.0048477813
102	0x3dc6a63f	0.09699678
103	0x3dfc9195	0.12332455
104	0x3d8e6e12	0.06954588
105	0xbc52a25e	-0.012856094
106	0x3e06a805	0.13150032
107	0xbda93049	-0.08261163
108	0xbd829908	-0.06376845
109	0x3d8a5234	0.0675396
110	0x3dd39c36	0.10332529
111	0x3d9bac82	0.07601263
112	0xbdddf183	-0.1083708
113	0x3ccc462a	0.0249358
114	0x3e05cc46	0.13066205
115	0x3e2dcbd7	0.1697229
116	0xbd84eed8	-0.06490868
117	0x3dd0f2d8	0.10202569
118	0x3d661165	0.056168932
119	0xbd4e2cfc	-0.05033587
120	0x3dd30e08	0.103054106
121	0xbe19ad87	-0.15007602
122	0xbe0b5753	-0.1360753
123	0xbe12ddd0	-0.14342427
124	0x3d4fe0af	0.050751384
125	0xbd23f0bc	-0.040024504
126	0x3d9ec5f9	0.07752604
127	0x3e09a005	0.13439949

linear3.bias f4 [4]
0	0xbe257034	-0.16156083
1	0x3d1e3715	0.03862675
2	0xbd48c339	-0.049014304
3	0xbd5d8b82	-0.054088123
