saved_models/REINFORCE_ConvNet_0.8_0.0001_2.ckpt (torch, 12855 bytes, 8 tensors)

layer1.0.weight f4 [16, 1, 2, 2]
000000 72 01 03 be da 5c f0 3d 1f 3c 8a be c2 dd 88 be
       -0.1279352 0.1173646 -0.26998994 -0.26731688
000010 bc 25 9a 3e c0 0b ad bd 35 53 cb 3d 90 4d c3 3e
       0.30106914 -0.08449507 0.0992798 0.38145113
000020 41 c4 15 bc 1f ee a3 3c 90 66 96 3e f9 15 f5 3e
       -0.009141029 0.020011006 0.29375124 0.47868326
000030 d7 20 76 be a6 6b f9 bc 81 95 c9 3d 23 a5 f5 be
       -0.24035965 -0.030446839 0.09842969 -0.47977552
000040 82 70 a6 bd 06 8c 65 be be 08 ea 3e 88 59 57 bd
       -0.08126928 -0.22416696 0.45709795 -0.052575618
000050 e9 37 ca be 5f 1f ef be 7f 4a f8 3e 7f 48 e8 be
       -0.3949578 -0.46703622 0.48494336 -0.4536781
000060 58 d7 b3 bd b5 3b e8 3e ea 30 91 3e 78 80 01 3e
       -0.08781308 0.45358053 0.2835763 0.12646663
000070 b7 6d 25 3e 63 35 77 be 4d 41 ea be 7d b1 71 3e
       0.16155134 -0.24141459 -0.45752946 0.23602863
000080 da d6 1f 3e 87 c3 69 3e 70 ed eb 3e 2b 43 71 be
       0.15609303 0.22828494 0.46079588 -0.23560779
000090 f0 76 d6 be 33 10 2f bc 40 4d e3 3d db 77 c6 bd
       -0.41887617 -0.010685015 0.11098719 -0.09690829
0000a0 27 b3 db bd 3a 5e ec be 8f 62 5f 3e 03 09 62 3d
       -0.1072753 -0.4616564 0.21814941 0.055184375
0000b0 ae 13 6c 3e b5 60 93 3e 4e 5d ab be 75 d8 af bd
       0.23054382 0.2878472 -0.33469623 -0.08586208
0000c0 f0 d4 5a 3e 0b 00 3a 3e 00 0b de 3e 77 a6 b1 3e
       0.21370292 0.18164079 0.43367767 0.34697315
0000d0 f2 1e 53 3e 2e da dd 3e 78 b0 81 3e 6b e1 93 bd
       0.20617273 0.4333052 0.25329947 -0.072207294
0000e0 4f d7 cd 3e 9b 32 2a 3e 50 ef db 3e 69 eb 79 3e
       0.4020333 0.16620867 0.42956018 0.24406208
0000f0 2e c9 c7 be 10 5d 57 3e 4e 17 7a 3e c6 a0 e5 be
       -0.39020675 0.21031594 0.24422953 -0.44849223

layer1.0.bias f4 [16]
000000 d5 fc fc be f5 9a 70 be 61 30 ae be 04 15 fc be
       -0.49411646 -0.23496611 -0.34021285 -0.49234784
000010 d0 4e d6 be 24 a5 6a be 76 cb 8c be 6c 89 04 be
       -0.41857004 -0.22914559 -0.27498978 -0.12943047
000020 96 94 29 3d 7a 3a db 3e 31 1b 9e 3d 7b 28 85 3e
       0.04140147 0.42818052 0.0772003 0.26007447
000030 cd f8 96 be ef aa e7 bc 7d b1 bd 3e c2 1b d5 3c
       -0.29486695 -0.02827975 0.37049475 0.026014213

layer2.0.weight f4 [16, 16, 2, 2]
000000 a8 d2 fd bc f0 56 60 bc b8 87 bf bc 98 93 05 3d
       -0.030984238 -0.0136926025 -0.023380145 0.03261146
000010 20 be 92 bb fe 2d f0 bd 7c cf c9 bd 27 08 80 bd
       -0.004478231 -0.11727522 -0.09854028 -0.06251555
000020 38 84 b7 3c 6a 8f ba bd 86 a1 89 bd 2f b5 60 3d
       0.022401914 -0.09109385 -0.06720261 0.05486029
000030 f8 a5 b5 bd 5c 53 07 bd 5c 79 db 3d 98 42 ce 3d
       -0.08869547 -0.033038482 0.10716507 0.100712955
000040 e0 14 41 bc 8e 64 c9 3d 90 ae 33 bc 7c 4a 04 3d
       -0.011784762 0.098336324 -0.010966912 0.032297596
000050 94 fe 31 3d 00 a2 e3 3d e8 10 bc bd d8 61 87 bd
       0.043455675 0.111148834 -0.09182912 -0.06610459
000060 c4 54 4e 3d 28 d1 0b 3d 98 11 78 3d 56 ce ae bd
       0.050373808 0.034135014 0.060563654 -0.08535449
000070 6e 71 ac 3d 94 c5 5d bd ae 58 c1 bd 64 2c 5b 3c
       0.084200725 -0.054143503 -0.094407424 0.013377283
000080 f0 54 01 bc 68 51 56 bd 07 96 87 3d 83 8d b2 bd
       -0.007893786 -0.05232373 0.06620412 -0.087183975
000090 50 ce 26 bd 60 fb 1f bd 97 19 c1 3d 35 86 1d bd
       -0.0407241 -0.03905809 0.09428709 -0.038458068
0000a0 a2 45 f2 bd e2 58 91 bd 96 12 92 bb 0b fc 03 bd
       -0.11829688 -0.07097031 -0.004457782 -0.03222279
0000b0 f2 c7 b5 bd 72 86 ed 3d dc 6e 94 3d ef c5 32 3d
       -0.08876027 0.11597909 0.07247707 0.043645795
0000c0 3e c6 85 bd 0e 85 dd bd 56 8f a2 3d 61 b8 df bd
       -0.06531952 -0.10816394 0.079374954 -0.10923839
0000d0 6a a2 ec 3d 00 ca 24 3a 40 2e f5 bc 9c b6 36 bd
       0.115544155 0.0006286204 -0.02992928 -0.044607744
0000e0 f0 14 f4 bc 2c 94 66 bd 4d 01 6e bd 0f df 8d 3d
       -0.02979514 -0.05629365 -0.05810671 0.06927311
0000f0 22 55 98 bd 44 0f d9 bd ff 57 dc bd 25 ad 85 bd
       -0.07438113 -0.10598615 -0.107589714 -0.06527165
000100 c5 24 d2 bd 5c a9 2c 3d 3e f6 cc bd 64 6c f3 3d
       -0.102609195 0.0421537 -0.100079045 0.11885908
000110 85 16 9d bc fa 08 8c 3d af 3d 3d bd 11 66 1e 3d
       -0.019175777 0.0683765 -0.046201404 0.038671557
000120 76 02 e7 3d 9d bf af bb 84 46 d5 bd 67 66 4e 3d
       0.11279766 -0.0053634183 -0.104138404 0.050390627
000130 cf b7 82 3d 28 65 e4 3d b9 9a cf 3d bf 57 43 3d
       0.06382715 0.111521065 0.10136933 0.047691103
000140 8a 88 39 bd 38 5c 44 3d a7 1d 9e bc 13 80 dc bd
       -0.04529623 0.04793951 -0.019301249 -0.10766616
000150 85 00 8b 3c 71 75 a6 bd 4e cf e7 bd 5b b8 02 3d
       0.016968021 -0.08127869 -0.11318837 0.031914096
000160 25 f2 86 bd 07 a3 a2 bd e7 86 f3 bd a5 85 4f 3d
       -0.06589154 -0.07941251 -0.11890965 0.050664563
000170 0b 30 b8 3d 61 5b 3b 3d dc f0 1d 39 5d b1 af 3d
       0.089935385 0.045741443 0.00015062414 0.08578751
000180 51 fc 5c bd cf bc 68 bd 50 81 ec 3d d9 ab 6e 3c
       -0.053951565 -0.056820687 0.11548102 0.014567339
000190 ea b7 97 bd 21 52 1c 3d 95 aa 23 bc b0 56 b6 3c
       -0.07408126 0.03816426 -0.0099894 0.022258133
0001a0 90 18 23 bc 33 78 a9 3d 45 af aa 3d ca 7f 92 bd
       -0.009954587 0.08274879 0.08334211 -0.0715328
0001b0 15 8c 87 bd 8a 27 a0 3d 6a 7c 86 3d cd 6f 67 3d
       -0.066185154 0.078200415 0.06566699 0.056503106
0001c0 ad 7f 9b 3d 76 7d 1b 3d 03 72 d6 bb 21 71 eb bd
       0.075927116 0.037961446 -0.006544353 -0.11496187
0001d0 03 ad 38 bd 1d 7a e6 bd 0b 8b 37 3c 52 39 21 3b
       -0.04508687 -0.1125376 0.011202584 0.0024600816
0001e0 e1 87 15 bd 4d 4c d3 3d 87 71 3f 3d e2 f8 82 3d
       -0.036506537 0.103172876 0.046739127 0.06395127
0001f0 0f fe da 3d 31 34 e0 3d 94 d3 d1 3d 3d 99 b2 3d
       0.10692989 0.10947455 0.102454334 0.08720634
000200 c2 8c 98 bd 70 e5 05 3d bd fd f5 3d d4 74 d1 3d
       -0.074487224 0.03268951 0.12011287 0.10227361
000210 e9 07 9f 3d ed 76 f8 bd d8 3d c8 bd f9 92 6d bc
       0.077651806 -0.12132058 -0.09777421 -0.014500373
000220 76 bd 17 bd aa 67 fa bd 00 15 ec 3c ca 02 86 3c
       -0.03704592 -0.122268036 0.028818607 0.016358752
000230 ba f0 ca bd 63 0e cd 3d 76 23 bb bd 11 db 94 bd
       -0.09909196 0.1001251 -0.09137623 -0.07268346
000240 b6 04 4b ba 40 1e b0 bb b0 af f1 3b 29 b6 a8 3c
       -0.00077445374 -0.0053747 0.00737568 0.020594673
000250 5d 93 68 3d 90 ad a2 bd 34 78 b6 bd 2b fb f3 bd
       0.05678116 -0.07943261 -0.08909646 -0.11913141
000260 07 bb 25 bd d6 c4 92 bc 15 ae df 3d 1d 85 92 3d
       -0.040461566 -0.017916124 0.109218754 0.071542956
000270 2a 6b 84 ba 7c 92 ef bd 2b ce 0c 3d 70 f3 5f bd
       -0.0010102738 -0.116978616 0.034376305 -0.05467552
000280 77 cd 97 3d 5d b8 d3 3d 40 e8 e6 bb b6 76 f8 bd
       0.07412236 0.10337899 -0.0070467293 -0.12132017
000290 4d 2f e6 3a 27 04 12 3d 55 e0 9c bd 52 7d 1d bd
       0.0017561704 0.03564849 -0.076599754 -0.038449593
0002a0 d7 6b 4f bd 38 63 aa bd d1 d4 8b 3b 4b 58 f2 3d
       -0.050639953 -0.08319706 0.004267313 0.11833247
0002b0 0c d7 b3 3d 8d c7 94 bd e7 a6 91 bd fd 82 f2 3d
       0.08781251 -0.07264624 -0.07111912 0.1184139
0002c0 12 48 c5 bd d7 b8 c2 bd 82 da 21 bc e0 50 1e bd
       -0.09632887 -0.09507912 -0.0098787565 -0.038651347
0002d0 ac cf d7 bd 2e 61 76 3c 3c 9d bd 3d 6e 84 76 3c
       -0.10537657 0.015037818 0.09258506 0.015046222
0002e0 f9 55 ac 3d 45 5a d3 bd ab b1 ef 3d 34 18 6b ba
       0.084148355 -0.10319952 0.11703809 -0.0008968145
0002f0 5c 01 a5 3d d0 4d a1 3d 6f 35 ee 3d 35 57 fa bc
       0.080569 0.0787617 0.116312854 -0.030559162
000300 e3 10 c7 3d c0 d4 9f 3d be a6 2d bd 52 05 f5 bd
       0.09720018 0.07804251 -0.042395346 -0.119639054
000310 d6 d6 0b 3d e0 e9 b4 3d 9f 71 b7 ba fb 38 3f 3d
       0.03414043 0.088336706 -0.0013995654 0.0466852
000320 ab e5 90 3d d3 c2 7c 3d f3 fe cf 3d 2e 69 80 bd
       0.07075056 0.061709236 0.101560496 -0.062700614
000330 8d 5b ca bd b0 2f cb 3d 3c b6 92 3d 2f 87 df 3d
       -0.09880743 0.09921205 0.07163665 0.10914456
000340 a8 24 bc bc 14 cb dc 3c 02 3d 97 3d 2b da be 3d
       -0.022966698 0.026952304 0.07384683 0.09318956
000350 52 ee 23 bd 10 88 d1 bc 20 a2 78 bd f2 fb ce bd
       -0.0400222 -0.025577575 -0.06070149 -0.101066485
000360 03 18 c1 3c 01 98 92 3d d6 11 21 3d 66 14 ff 3d
       0.02357102 0.07157899 0.03932365 0.124550626
000370 69 ff 86 bd 5c d8 5f bd 43 7f bc 3c 31 4e 49 3d
       -0.06591684 -0.054649696 0.023009902 0.049146835
000380 63 ed b2 bd 74 3a ab 3b 64 da 97 bc 71 a5 89 bd
       -0.08736684 0.005225474 -0.018536754 -0.067210086
000390 16 e1 76 bc 59 05 df 3d 70 e8 a7 3d 88 d6 77 bd
       -0.015068313 0.10889692 0.08198631 -0.060507327
0003a0 b3 f1 74 3d 1a e5 b8 bd 70 fb 7d 3d 0e d5 b6 bc
       0.059800815 -0.09028073 0.062007368 -0.02231839
0003b0 41 77 41 3d 3a 3b a4 bd d3 6c 68 3d 02 8c 93 bd
       0.04723287 -0.08019109 0.056744408 -0.07204439
0003c0 c7 4d aa b8 7a b5 97 bb 44 fa 0d ba c1 d0 e6 3d
       -8.120719e-05 -0.004629788 -0.00054160156 0.112702854
0003d0 aa 41 2b 3d 50 6a a9 bd 54 6c a2 3c 74 f3 b7 3d
       0.04181067 -0.082722306 0.019827046 0.08981982
0003e0 dd 07 ad 3d 85 d5 c9 3d bd 06 d5 3d 04 b2 1e 3d
       0.084487654 0.09855179 0.10401676 0.038743988
0003f0 6e 32 e2 bc 5c d0 e6 3c 3d ce c5 bd da ec e7 bd
       -0.027611937 0.028175525 -0.096584775 -0.11324473

layer2.0.bias f4 [16]
000000 ad 1e d3 bc e3 3e 59 bd 46 f3 96 bd 92 0b a1 3d
       -0.025771463 -0.05303849 -0.073706195 0.07863535
000010 e2 c6 b1 3d d1 38 a6 bd 82 09 bb 3d 7c 84 c7 3d
       0.08680512 -0.081163056 0.09132673 0.09742066
000020 c0 33 a3 3c 52 2b ce bd 05 e7 a2 bc 5a b6 f0 bd
       0.019922137 -0.100668564 -0.01988555 -0.11753531
000030 c2 d4 b4 bd 58 1c ac bd 69 2e 59 3d 74 72 12 bd
       -0.08829643 -0.08403844 0.053022776 -0.035753682

layer3.0.weight f4 [16, 16, 2, 2]
000000 f1 5a 0e bd 37 cd 2e 3d 8e 1c 1e 3d 24 81 c3 3d
       -0.034754697 0.042676177 0.03860145 0.09546116
000010 c5 36 5d 3d 7c a2 b7 bd 70 af af bd b9 7f 23 bd
       0.05400731 -0.08966538 -0.08578384 -0.039916728
000020 6a 0b 68 bd b3 38 31 bd c0 11 d4 bd 97 86 52 3d
       -0.05665151 -0.043266963 -0.10354948 0.051397886
000030 cd ef c6 bd 1f b2 d2 bd dd 49 f0 bd c4 cf b1 bc
       -0.09713707 -0.1028788 -0.11732838 -0.021705516
000040 53 63 70 bd d2 d2 d8 3d 19 e0 95 bd d8 84 8c bd
       -0.058688473 0.10587086 -0.07318134 -0.068612754
000050 a8 17 7c 3d 84 1f da bc 61 c1 59 3d ff 6b 9f ba
       0.061545998 -0.026626356 0.053162936 -0.0012162923
000060 20 57 9a bc d5 52 e3 bd 49 a8 29 3d 22 3c 9c bd
       -0.018840373 -0.11099783 0.041420255 -0.07628657
000070 b3 c7 5d bc a2 3b da bd 16 90 6e bd 84 0a 25 bd
       -0.013536382 -0.10655905 -0.05824288 -0.04029323
000080 9a cd e5 bd 39 f5 a2 3c ed b4 ac 3d 3c 43 c0 3c
       -0.11220856 0.019892322 0.08432946 0.02346956
000090 c4 fa a3 3d fd 91 ba 3d 69 27 95 3d 2d 5b 1b 3d
       0.08006814 0.09109876 0.072829075 0.03792875
0000a0 4c da 51 bd 60 9c c2 bd 4b ff ed bd 46 94 f7 3d
       -0.051233575 -0.095024824 -0.11620959 0.12088828
0000b0 44 87 b9 3c 4b d1 fd bc cf c6 d7 3d 37 af b7 bc
       0.022647507 -0.030983588 0.105359666 -0.022422416
0000c0 08 e1 a6 3d c6 9c 2c 3d 51 65 d9 3d a2 1e d1 3d
       0.0814839 0.0421417 0.10615028 0.10210921
0000d0 a7 f0 1d bd 5c 80 fc bc 37 fa d3 3c 4b 02 c6 3d
       -0.038559582 -0.030822925 0.025876148 0.09668406
0000e0 28 1f ad bd ae 97 ad bc 5c 3d eb 3c be ef fa 3d
       -0.08453208 -0.02119049 0.028715782 0.122527584
0000f0 e7 8e 65 bd 3a b3 fa bc 06 9b 92 ba 35 ba 86 bd
       -0.056044485 -0.03060304 -0.0011185117 -0.06578485
000100 f7 69 df 3d 9c a1 8d 3a 12 52 93 bd b3 80 88 bc
       0.10908883 0.001080561 -0.07193388 -0.016662931
000110 4b fb f9 3d d2 0c 4c bc f4 77 88 3d 33 f6 d2 bd
       0.122061335 -0.0124542285 0.06663504 -0.10300865
000120 f1 1b 6f bd 4f 75 23 bd 97 70 b2 3d be f8 2f 3d
       -0.058376256 -0.039906796 0.08712881 0.04296183
000130 c3 40 98 bd 9f 2e 95 bc 12 aa 5d bb 07 8a 87 3c
       -0.07434227 -0.018210707 -0.0033823294 0.016545309
000140 da 30 ee bd d9 3c 9a bd 57 d0 0d 3d 79 a5 31 3d
       -0.116304114 -0.07531137 0.034622516 0.043370698
000150 b6 e0 3c 3d 8c 06 e4 bd f5 be b4 3d 0a cd d7 3c
       0.04611274 -0.11134061 0.08825485 0.026342887
000160 a1 0f ca bd 38 f5 ec 3d da 2b 2d 3d 15 c3 af 3d
       -0.09866262 0.11570209 0.04227815 0.08582131
000170 2b b3 e0 bd 94 94 db 3d d4 b2 1e 3d ae 0e d7 3d
       -0.109716736 0.107216984 0.038744763 0.10500847
000180 20 d0 c4 bd 96 c9 da 3d 6e be 95 bd ef 7d 2d 3c
       -0.09610009 0.10682981 -0.07311712 0.010589107
000190 4b 2e ec 3d fb ec 70 bd 0a b5 62 bd 2e 0a c4 bd
       0.11532267 -0.058819752 -0.055348434 -0.09572254
0001a0 8d d4 28 bd 6f 01 82 3c 30 9b ee bd 88 b9 8e 3b
       -0.04121833 0.015869824 -0.116506934 0.004355613
0001b0 c4 30 fc bd 75 32 f6 3c 00 db d9 3d 16 50 0f 3c
       -0.12313989 0.030053357 0.10637474 0.008747121
0001c0 35 7b 98 3d 85 29 99 3d 41 d8 fb bc 95 bb 80 3d
       0.07445375 0.07478622 -0.030742766 0.062857784
0001d0 9c df fb bc 19 51 9a 3d 2d b6 94 3d 08 50 44 3d
       -0.030746274 0.075349994 0.0726131 0.047927886
0001e0 b9 9f 17 3d 4d aa 80 bd 70 00 b2 3d 1e 8c ae 3d
       0.037017558 -0.06282482 0.0869149 0.08522819
0001f0 de 9b c0 bc 2a 57 a0 3d 0d 8e eb bd 21 aa d4 3d
       -0.023511823 0.07829125 -0.115017034 0.10384012
000200 98 68 61 3c 00 b0 da bc d1 0d d4 bd 86 9f ca bd
       0.013757847 -0.026695251 -0.10354198 -0.09893708
000210 f7 07 39 bd 7f e0 a2 3d 1a 1a 81 bd 74 79 7f bd
       -0.04517361 0.079529755 -0.063038066 -0.062371686
000220 c2 50 f1 3d ac 23 8c bc 7d c3 cf bc dd a0 dc 3d
       0.117829815 -0.017106853 -0.02536177 0.1077287
000230 c1 6c 80 bd 59 c6 cd 3d 61 c0 01 bc a4 54 41 3c
       -0.06270743 0.100475974 -0.007919402 0.011799965
000240 be e3 e6 bd df 6a b6 bd e2 0b 99 bd b8 ec 18 bd
       -0.11273907 -0.08907103 -0.074729696 -0.037335128
000250 9f 07 c9 3d 75 8c da 3d e1 14 a2 bc fe e4 d0 3d
       0.09815907 0.10671321 -0.019785346 0.10199927
000260 62 d0 53 bd 1f fb 88 3d 3c d2 af bd f1 6b 21 bd
       -0.0517124 0.066885225 -0.08585021 -0.03940958
000270 71 6c 45 3d a7 53 aa bd 01 20 31 bc 2f 72 ae 3d
       0.04819912 -0.08316737 -0.010810853 0.085178725
000280 67 38 f9 bd 08 36 a7 bd 26 80 27 bc 8f e9 b2 3b
       -0.12168961 -0.081646025 -0.010223424 0.0054599713
000290 f1 90 b2 bd 14 14 c0 bd 53 02 80 3d ec 2f d2 3d
       -0.08719052 -0.093788296 0.06250443 0.102630466
0002a0 4e ec c5 bb 31 5b 49 bd 4d 2b 28 bd 5d 61 c6 3d
       -0.0060401326 -0.049159233 -0.04105692 0.09686539
0002b0 1a 00 29 3d fd af 6a bd 6a 13 ae bc ff f3 f1 3d
       0.041259862 -0.05729674 -0.021249492 0.11814117
0002c0 96 e0 c4 bc a4 72 72 bd 9c 5f ea bd 4f 93 51 bd
       -0.024032872 -0.05919136 -0.11444017 -0.051165875
0002d0 1e 57 54 bd 71 b4 f1 bd 65 9b 4c bd fb 01 8a bd
       -0.051840894 -0.118019946 -0.049952883 -0.06738659
0002e0 93 bd df bc 3d af 8a bc df 72 7d 3d 4e fd 2e bc
       -0.027312076 -0.016929263 0.061877128 -0.01068051
0002f0 88 84 ab bb de 35 e2 3d 4a 6f cc ba 93 5b 70 bd
       -0.005234305 0.110454306 -0.0015597132 -0.058681082
000300 c6 c0 6e bd 90 d7 c7 bd c6 6e 8d bd 97 5c b5 3d
       -0.05828931 -0.09757912 -0.06905894 0.08855551
000310 dd e8 03 bd 56 60 e4 3d 8b 65 be bd f0 8a b9 3d
       -0.032204498 0.11151187 -0.092967115 0.09059703
000320 18 8e d3 3d 12 cf 5a 3d 16 05 9e bd f5 d7 c5 3c
       0.103298366 0.053420134 -0.07715814 0.024150828
000330 00 ce 99 3d fe 02 1d 3d b2 e0 8a bd 40 4a 8a 3c
       0.075099945 0.03833293 -0.067811385 0.016881108
000340 d0 f9 d2 3c 88 01 88 3d 82 5d 60 3d 7a 8c f1 bd
       0.025753886 0.06640917 0.054776676 -0.11794372
000350 f7 17 9c 3d 74 b6 ce 3c 2d 51 46 3d 7f ad a7 3d
       0.076217584 0.025233485 0.04841726 0.08187389
000360 0b b8 2a 3d 52 13 ce 3d 99 03 be bd 70 49 92 bc
       0.041679423 0.10062279 -0.0927803 -0.017857283
000370 8c 2e c4 bd 24 48 e2 bc 07 2b e1 bc ad c6 aa bc
       -0.095791906 -0.02762229 -0.027486337 -0.02084669
000380 1b 3e d0 3d 4f 34 77 3d 85 6a 53 3c b9 60 05 3c
       0.10168096 0.06035262 0.012903814 0.008140736
000390 f6 09 b6 3d 30 49 9e bd 94 54 80 3d 92 1e f5 3d
       0.08888619 -0.07728803 0.06266132 0.119687214
0003a0 87 42 e3 3d c7 f0 cb 3d 0f c5 d4 3c 99 e4 bf bd
       0.110966735 0.09958034 0.025972871 -0.093697734
0003b0 cc f9 bd bd 06 18 4f bd 42 25 ff 3d f6 99 20 bd
       -0.092761606 -0.05056002 0.12458278 -0.03920933
0003c0 2f 5f c9 3d dd e6 4e 3d 7e 7e 1f bc eb 69 52 3d
       0.09832608 0.050513137 -0.009734748 0.051370542
0003d0 66 30 ac bd ce d7 c3 bd 96 c2 ce 3d 14 89 84 bd
       -0.08407669 -0.09562646 0.10095708 -0.06471458
0003e0 4f 23 e0 bd 38 49 ca bd 49 df f2 bd cf dc 21 3d
       -0.109442346 -0.098772466 -0.118589945 0.03951722
0003f0 5b ba b0 bd e6 34 14 bd d6 73 d0 bd 89 4c 73 bd
       -0.086292945 -0.03618326 -0.10178344 -0.05939916

layer3.0.bias f4 [16]
000000 bd d2 aa 3b c8 e4 5f 3d 66 96 12 bd ba 8d cc 3c
       0.0052131102 0.054661542 -0.035787962 0.024969924
000010 87 75 34 3d 4c 25 51 bd 4b e5 cd 3d 52 6c 7a 3d
       0.044057395 -0.05106096 0.100535 0.06113846
000020 c7 5b cd bd 31 c3 2a 3d 61 0f db bc 02 32 eb 3c
       -0.10027271 0.041690055 -0.026740732 0.028710369
000030 75 a3 dd bb b3 de 3c bc ec cf d6 3d 2d 57 ab bd
       -0.0067638704 -0.011527705 0.10488877 -0.08366237

fc_lambda.weight f4 [4, 64]
000000 48 4f b2 bd d7 53 da 3d 83 c7 8c bd d0 ac 17 3c
       -0.08706528 0.106605224 -0.06873991 0.00925751
000010 fc d2 29 bd f2 06 49 bd 94 c5 26 3b b3 a5 a0 3d
       -0.041460976 -0.04907889 0.0025447356 0.078441046
000020 79 bb 10 bc 75 4a c9 bd 2f 34 be 3d 68 f9 fb bc
       -0.008833759 -0.09828655 0.09287297 -0.030758575
000030 42 72 c7 bd cf 7f d7 bd 57 94 9a b8 7d 4c c6 3d
       -0.0973859 -0.105224244 -7.370923e-05 0.09682558
000040 c3 97 f1 3d ab 2e 07 3d 12 54 9e bd 9e 9b a4 bd
       0.117965244 0.03300349 -0.07730879 -0.08037494
000050 cb 45 be bd 1e f1 c8 bd 68 9d 05 bd a6 66 66 bd
       -0.09290656 -0.098116145 -0.032620817 -0.056250237
000060 20 62 bd 3c fa 4c d3 bd 9c 6d a1 3d 94 f1 e0 3d
       0.023118079 -0.103174165 0.078822345 0.10983577
000070 85 3d b7 bd 40 f9 f9 3d 2b 97 d6 3d 77 57 de 3c
       -0.08947281 0.12205744 0.10478052 0.027141316
000080 7b 8b f3 3d 70 48 fe bc cf 68 d3 3c 18 7f ed bd
       0.11891838 -0.0310404 0.025806813 -0.11596507
000090 69 b9 f0 3c 2c 2a 0b 3b 2d 90 f8 3d 72 46 eb 3d
       0.029385285 0.0021234853 0.12136874 0.11488046
0000a0 f0 59 80 3c b5 64 fe bd b8 0f 21 3d b0 fd 09 bc
       0.015667886 -0.12421552 0.03932163 -0.0084223
0000b0 17 9e a1 bd b6 a6 76 bd a5 98 b3 bd a0 49 42 bc
       -0.07891481 -0.06021758 -0.08769349 -0.011858374
0000c0 09 5c ac 3d bf 4d 0f 3d f2 62 b4 bc 00 d8 c8 3a
       0.08415992 0.034986254 -0.022019837 0.0015323162
0000d0 06 3e 85 3d f0 23 2d bd a8 93 bc bd e7 60 f2 bc
       0.06505971 -0.0422706 -0.09207851 -0.029587222
0000e0 6c f7 35 bd 40 49 a5 3d 2e 03 e5 3d 6d 48 4b bb
       -0.044425413 0.08070612 0.11182247 -0.003101851
0000f0 86 3c b0 3d bc 11 a1 bd cf fc ab 3d b0 02 92 3d
       0.08605294 -0.07864711 0.08397829 0.07129419
000100 f8 af ad bd 2a 7b b0 bd 7e b0 8f 3d 88 9b fa 3d
       -0.08480829 -0.08617242 0.07016085 0.122366965
000110 26 27 cf 3d a2 13 c2 bd 62 8e 5d 3b f2 52 f2 3d
       0.10114889 -0.09476401 0.003380679 0.11832227
000120 1b eb ee bd bc 2f d1 3d 87 e5 e3 bd 50 f4 32 3c
       -0.116659366 0.10214183 -0.11127763 0.010922506
000130 17 33 d9 3c d3 33 a8 bb f8 dd ba 3d a5 ad aa 3c
       0.02651362 -0.005133131 0.091243684 0.020834753
000140 9f ab fd 3c 4e 61 27 3d 06 7b f7 3c 17 ff 53 bb
       0.030965624 0.04086428 0.03021003 -0.003234809
000150 6b 82 45 3d 98 e1 b0 3d 3e 88 49 3d 24 ab cf bd
       0.04822008 0.086367786 0.049202196 -0.10140064
000160 0d b7 99 3d 37 0e 39 3c 69 69 50 3d 74 9e c9 3d
       0.07505617 0.011294893 0.050881777 0.09844676
000170 68 c5 97 3d af 79 e5 3d ff 8b ce 3d 05 d3 59 bd
       0.07410699 0.1120485 0.10085296 -0.05317976
000180 b1 9d 71 3c c8 c1 fb 3d 96 de f9 bd b7 e7 f7 bd
       0.014747069 0.1229282 -0.12200658 -0.12104743
000190 bf 8d 80 bd 2b e6 6e bd 87 8a 76 bd 9a 17 02 bd
       -0.06277036 -0.058324974 -0.060190704 -0.03176079
0001a0 c6 c6 8a 3d 02 bb 3a bd a0 46 ce 3d 26 a7 a4 bd
       0.06776194 -0.0455885 0.100720644 -0.080396935
0001b0 ac 0a a2 bd 38 c0 7e 3d da dd aa bd 46 b7 4e 3c
       -0.07912192 0.062195033 -0.08343096 0.012616938
0001c0 26 73 98 bd 77 69 7e bd 2e 9b ad 3d 0c 7a 76 3d
       -0.07443838 -0.062112298 0.08476864 0.060174987
0001d0 00 72 76 3c 1b d1 b9 bc 34 20 a8 3c 5a d2 85 bd
       0.015041828 -0.022682717 0.020523168 -0.06534262
0001e0 6a 53 8c 3d 3a 17 db 3c 0f 38 e1 3d 0a 68 1b 3d
       0.068518475 0.026744474 0.109970205 0.037941016
0001f0 80 94 97 3b 04 66 6e 3d 21 be cb bd c0 50 fa 3c
       0.004625857 0.05820276 -0.099483736 0.030556083
000200 db 9d a2 3d 7d a1 a1 3d d4 54 b3 3c e8 10 0a bd
       0.07940265 0.078921296 0.021891035 -0.03370753
000210 8e 88 7c 3c 06 c5 a8 3d 70 79 a1 3d d9 16 56 bd
       0.015413417 0.08240704 0.078844905 -0.052267883
000220 29 1e 77 3d 6b 25 ec 3d 9b 49 cc bd b4 33 a0 3d
       0.060331497 0.115305744 -0.09974977 0.078223616
000230 2e c1 d7 3c 87 67 bd bd 97 2d 78 3c 98 07 76 bd
       0.026337232 -0.09248262 0.015147588 -0.060065836
000240 b5 68 97 bd 21 95 bb 3c bb 58 73 3d da 29 c7 bd
       -0.07393018 0.022898259 0.05941079 -0.097247794
000250 b6 aa dd bd a4 cc 78 bd b2 5e d3 bd 7b f2 c9 3c
       -0.10823576 -0.060742036 -0.10320796 0.024651757
000260 c8 bc ba bd 2f 94 c0 bd c5 7b 0d bd 54 ce bf bc
       -0.091180384 -0.09403264 -0.034541864 -0.023413815
000270 9d f2 ca bd c9 45 fe bd 47 f1 85 3c 77 cc ed 3d
       -0.09909556 -0.12415654 0.016350402 0.11611264
000280 bf 0b 82 3d e0 72 cf bc 55 c6 a8 bd 64 54 b1 3d
       0.06349897 -0.025323331 -0.08240954 0.08658674
000290 b6 e5 c5 3d bf e1 0b bd 90 ea 2b bd ec 18 9b 3c
       0.096629545 -0.034150835 -0.041971743 0.018932782
0002a0 68 1a f9 3c 78 61 d0 3d 52 8b d3 bd 7a 82 c4 3d
       0.0304081 0.10174841 -0.103293076 0.09595199
0002b0 83 6d a0 3d 78 46 da 3a 52 cb 11 3b 66 6a d2 3d
       0.07833388 0.0016653081 0.0022246432 0.102742
0002c0 ab cd 83 bd ae 10 79 bc d2 2a b8 3d 80 6c 2b 3c
       -0.064357124 -0.015201731 0.08992542 0.01046288
0002d0 4e 5a d0 3d 5f d6 f3 bd 4f 5f d2 bc ee 94 c3 3c
       0.10173474 -0.119061224 -0.025680212 0.023874726
0002e0 e3 0d 4c bd f5 a9 c5 3d 84 37 b6 bc 63 b2 ae bd
       -0.04981793 0.09651557 -0.022243269 -0.08530118
0002f0 7e 6b fe bd 40 79 a0 bb a1 2c cf 3d e8 fe b0 bc
       -0.12422846 -0.0048972666 0.10115934 -0.021605924
000300 c0 62 b3 3d b7 8f 66 bd 84 ba 67 bb 04 99 fa 3d
       0.087590694 -0.0562894 -0.0035358975 0.12236217
000310 18 c6 ac bb b9 e6 c3 3d 8f e3 6a bd 82 42 2f bc
       -0.005272638 0.09565491 -0.057345923 -0.010697009
000320 cc a0 a5 bd d6 9f d5 3d e2 6a 8f bc 02 76 d6 bd
       -0.0808731 0.10430877 -0.01750702 -0.10471727
000330 4f 38 c6 bd 46 19 5c bd 46 0a ff 3d a3 74 4e bd
       -0.09678709 -0.05373504 0.124531314 -0.050404202
000340 1d 38 bd bd 87 b1 b9 bd f0 b4 dd 3d 8a 04 9c bd
       -0.092392184 -0.09067064 0.10825527 -0.07618053
000350 11 12 2f bd 78 4d 8c 3d ee e9 75 3c c8 9b 83 bd
       -0.04274184 0.068507135 0.015009386 -0.06426197
000360 d3 30 59 3d 9d b4 9d bd 9a 89 d8 3d 72 51 a2 3c
       0.053025078 -0.07700465 0.105731204 0.019814227
000370 95 41 2b 3d 28 01 9c bd 7b d3 a4 3d 83 a4 8f bd
       0.04181059 -0.07617408 0.08048149 -0.070138
000380 d5 e0 aa 3d 14 5d 41 3d 90 6f 22 bd 60 eb d3 3c
       0.083436646 0.047207907 -0.039657176 0.025869071
000390 41 69 ed 3c 73 e5 f7 bc 1f ed 2f bc 63 a2 bf 3d
       0.028980853 -0.030260777 -0.010737686 0.09357145
0003a0 d0 03 38 3d 30 7a f9 bd a0 7f 89 bd c8 0b af bc
       0.04492551 -0.121815085 -0.06713796 -0.021367922
0003b0 eb 33 ce bc 6e f5 c5 3d bc c1 f4 3d 83 02 a9 bd
       -0.02517124 0.096659526 0.119510144 -0.08252432
0003c0 cb 4b 7e bd 65 bf d8 3d 35 ae ee 3d 34 5d 39 bd
       -0.062084 0.105833806 0.11654321 -0.0452549
0003d0 82 55 e8 bd 5d ab b4 bd f6 f3 4c 3d 28 21 9e bd
       -0.11344434 -0.088217475 0.050037347 -0.07721168
0003e0 0c 4a 87 3c d9 1a 93 3d 76 7e 54 bc 43 27 f8 bd
       0.0165148 0.07182855 -0.012969604 -0.121168636
0003f0 84 a8 eb 3d e6 21 e8 3d 21 38 5e 3d 14 e7 47 3d
       0.11506751 0.113345906 0.054252747 0.048804358

fc_lambda.bias f4 [4]
000000 81 94 35 3d 78 3c e4 3d 61 54 aa bc 6e 25 08 bd
       0.044331077 0.11144346 -0.020792188 -0.03323882
